Ecoterrarium/Assets/Brains/MoverAComida-169040.onnx (onnx, 550291 bytes, 10 tensors)

network_body._body_endoder.seq_layers.0.weight f4 [256, 16]
-0.3144245 -0.0059496746 0.10260707 0.05472315 0.008216702 0.10681866 0.102432 0.21909058
-0.15137541 -0.36209866 -0.15187913 0.40419808 -0.12656532 -0.1869011 -0.16020934 0.521763
-0.24642608 0.0022096094 -0.21885838 0.2606646 0.25561538 0.4529076 -0.089247674 0.21496014
0.055890027 0.071084075 0.1272051 0.18708046 0.25885925 0.19566369 0.16359934 -0.07468817
-0.05818672 -0.009186812 -0.19683087 -0.047834825 0.11529411 0.12138686 0.5763071 -0.034326162
0.3205812 0.16532132 -0.43679702 0.010763218 -0.18881164 -0.6653325 0.052940007 -0.063080974
0.34105176 -0.19954966 -0.041043866 0.41334105 0.014352502 -0.01870818 -0.13941583 -0.22713056
-0.35946143 -0.21897203 -0.49404132 -0.36914882 0.018837795 -0.053968377 -0.21948232 0.026524162
0.044276025 -0.40301177 0.16584231 -0.41106653 -0.08720256 -0.11596339 0.44801158 -0.14366561
0.08078036 -0.010005177 0.9150539 0.037647907 0.12662402 0.26689002 0.29800427 -0.09483679
-0.12606709 -0.46110925 0.06272391 0.26754278 0.039765514 -0.11527954 0.36140373 0.1554933
-0.11192678 0.30001244 -0.15784927 -0.14831257 0.16119854 0.24217688 -0.013277613 -0.39197567
-0.0586393 0.078155294 0.5128428 -0.12375708 -0.03285793 -0.2733726 0.037484366 0.038950026
0.35453072 -0.14744116 -0.06664854 0.0099669285 -0.24794154 -0.0941612 -0.21142171 -0.107582696
-0.16653876 -0.4742949 -0.21398176 -0.16173697 0.04292112 -0.021072822 -0.13873933 0.09197362
-0.50908417 -0.39712048 0.24603605 -0.23444174 0.19863741 0.16507404 -0.049270235 -0.1505611
0.4217707 0.35565582 -0.004166025 0.4194853 -0.07449794 -0.08535533 0.23406993 0.00041661205
0.43820295 0.014231414 0.39874068 0.098665304 0.3612838 0.09935211 0.18924168 -0.09843297
0.11470267 -0.017267672 -0.25404406 0.7275379 -0.19979922 0.37310132 0.05068078 -0.15251578
0.026147716 -0.14420076 0.110118195 -0.3209326 0.28179726 0.023424651 -0.45280793 0.09396113
0.5359776 -0.15966961 -0.49302825 0.6831247 -0.23946702 -0.02312001 0.032513548 0.025164934
0.058186866 0.22712712 -0.21377209 0.06625739 0.1349515 -0.23680408 0.3896443 -0.21530573
0.08637688 0.036214203 -0.33441192 0.16002412 0.3294097 0.2142725 -0.06412394 0.101450294
0.28941724 0.30265757 -0.033638787 -0.2856165 0.53817445 -0.3050923 0.19633737 0.10914573
0.14567848 0.30629694 -0.013349048 0.14930455 0.128897 0.06439782 0.40489128 0.19165953
0.29225102 0.21339594 0.1920519 -0.061855864 0.51830536 -0.12745929 -0.03723077 -0.5482469
0.52744466 0.39405113 0.038449865 0.26521957 0.15828107 0.38476837 -0.1432045 0.12614046
0.090839855 0.22367845 -0.16083562 0.63564223 -0.40617344 -0.39291617 -0.09714122 0.23910575
-0.09168324 0.1881809 -0.11584048 -0.3446018 -0.44649857 -0.20721197 -0.056381796 0.18517415
0.53183484 -0.2527698 0.08670455 -0.2965551 0.14434789 -0.050089236 0.4979565 -0.14606448
-0.19844985 0.22278416 0.06438689 0.10885528 0.3778831 0.15653415 0.108367264 0.28661704
0.09956505 -0.000654743 -0.2472659 0.1919808 0.28667283 0.3117507 0.22404106 0.20873165
00000000: 40fc a0be 7df5 c2bb a823 d23d 6225 603d
00000010: 599f 063c bec3 da3d dec7 d13d 4859 603e
00000020: 2802 1bbe ff64 b9be 3486 1bbe 0df3 ce3e
00000030: 579a 01be 0163 3fbe eb0d 24be 4392 053f
00000040: 1e57 7cbe 18cf 103b 691c 60be d575 853e
00000050: 05e0 823e 81e3 e73e 7cc7 b6bd 831e 5c3e
00000060: f1ec 643d 8794 913d 0e42 023e 0592 3f3e
00000070: 3389 843e 105c 483e 9686 273e 1cf6 98bd
00000080: 3355 6ebd 4884 16bc 088e 49be 73ee 43bd
00000090: 511f ec3d ad99 f83d dd88 133f 9799 0cbd
000000a0: 3823 a43e fe49 293e dca3 dfbe 3558 303c
000000b0: d757 41be 3b53 2abf 9fd7 583d 9930 81bd
000000c0: 569e ae3e bf56 4cbe 9d1d 28bd 70a1 d33e
000000d0: c226 6b3c e641 99bc 06c3 0ebe ea94 68be
000000e0: 540b b8be 343a 60be fcf2 fcbe 1301 bdbe
000000f0: b851 9a3c f20d 5dbd f9bf 60be 3349 d93c
00000100: c75a 353d 8f57 cebe 91d2 293e 5077 d2be
00000110: 4197 b2bd 377e edbd c661 e53e 141d 13be
00000120: 2c70 a53d c1ec 23bc f940 6a3f b134 1a3d
00000130: baa9 013e cfa5 883e 0494 983e ca39 c2bd
00000140: bb17 01be 8316 ecbe 6575 803d 5efb 883e
00000150: 2ae1 223d ae17 ecbd e909 b93e a339 1f3e
00000160: de39 e5bd 3b9b 993e 3da3 21be 40df 17be
00000170: 3b11 253e 37fd 773e 588a 59bc 09b1 c8be
00000180: c32f 70bd e20f a03d aa49 033f 5a74 fdbd
00000190: 0996 06bd 7ef7 8bbe 3589 193d 108a 1f3d
000001a0: 0d85 b53e d1fa 16be 087f 88bd 544c 233c
000001b0: 63e4 7dbe 96d7 c0bd ef7e 58be 5154 dcbd
000001c0: 2389 2abe c8d6 f2be 091e 5bbe 609e 25be
000001d0: 0ece 2f3d e9a0 acbc af11 0ebe aa5c bc3d
000001e0: 5753 02bf 6053 cbbe e0f0 7b3e 7f11 70be
000001f0: 9b67 4b3e 2b09 293e 96cf 49bd b02c 1abe
00000200: 54f2 d73e 8518 b63e 2783 88bb c7c6 d63e
00000210: 6092 98bd c6ce aebd 07b0 6f3e b96c da39
00000220: 235c e03e e02a 693c bd27 cc3e 0911 ca3d
00000230: 31fa b83e 1e79 cb3d 92c8 413e 3a97 c9bd
00000240: 3ce9 ea3d ef74 8dbc 1012 82be ec3f 3a3f
00000250: 2b98 4cbe 2307 bf3e a696 4f3d 192d 1cbe
00000260: bc33 d63c 5da9 13be a685 e13d 4751 a4be
00000270: bb47 903e 0ee5 bf3c 71d6 e7be b16e c03d
00000280: d435 093f 6e80 23be 336e fcbe 43e1 2e3f
00000290: d836 75be 2d66 bdbc ed2c 053d b126 ce3c
000002a0: 5a55 6e3d 0394 683e 12e7 5abe f4b1 873d
000002b0: ba30 0a3e c57c 72be 757f c73e 1b79 5cbe
000002c0: 5de6 b03d 5855 143d 0a38 abbe 5ddd 233e
000002d0: 63a8 a83e 406a 5b3e 6a53 83bd 2cc5 cf3d
000002e0: 7f2e 943e eff5 9a3e d3c8 09bd 533c 92be
000002f0: cdc5 093f 0f35 9cbe aa0c 493e cc87 df3d
00000300: bd2c 153e f4d2 9c3e f7b5 5abc 4be3 183e
00000310: 93fd 033e 01e3 833d e94d cf3e 6542 443e
00000320: eda1 953e 7784 5a3e 41a9 443e 935c 7dbd
00000330: a9af 043f b084 02be 4b7f 18bd e959 0cbf
00000340: 9d06 073f 12c1 c93e 9b7d 1d3d dcca 873e
00000350: 6f14 223e 5c00 c53e 33a4 12be f72a 013e
00000360: 3f0a ba3d f70b 653e 18b2 24be 73b9 223f
00000370: f7f5 cfbe 4f2c c9be faf1 c6bd 23d8 743e
00000380: 6cc4 bbbd 7eb2 403e c63d edbd a66f b0be
00000390: 769b e4be 602f 54be 99f0 66bd 4b9e 3d3e
000003a0: 5426 083f 0b6b 81be 2892 b13d 12d6 97be
000003b0: efcf 133e 5f2a 4dbd 28f4 fe3e ed91 15be
000003c0: 7036 4bbe 8821 643e 46dd 833d 84ef de3d
000003d0: e579 c13e 7d4a 203e a8ef dd3d 78bf 923e
000003e0: c3e8 cb3d 0fa3 2bba 4633 7dbe 9d96 443e
000003f0: c8c6 923e ca9d 9f3e 056b 653e c0bd 553e

network_body._body_endoder.seq_layers.0.bias f4 [256]
-0.050102923 -0.100112185 0.009112227 0.009280109 -0.005483525 -0.18679848 -0.0086916415 -0.0871271
-0.06646136 0.0420126 -0.025979552 0.09542233 -0.050215036 0.027438663 0.060602155 0.059611183
0.0062105167 -0.080443494 -0.12879752 -0.08515901 -0.022944069 -0.09663836 -0.02035013 0.0020980726
-0.013695734 -0.067945085 -0.06837984 -0.18675178 -0.00812764 -0.11688856 0.056488164 0.017723177
-0.052100006 -0.013755657 -0.031005554 -0.020718934 -0.056846425 -0.13065037 0.07401627 0.041156914
-0.024961792 -0.030346157 -0.00983261 -0.040214658 -0.03542322 0.029163016 -0.010177713 0.033570196
-0.12984589 -0.033087898 0.044436734 0.011251197 -0.044745356 -0.039693337 0.03820991 0.0031677424
-0.09041943 -0.17130679 0.038619984 -0.015107922 0.037580587 0.007993435 0.0019204625 -0.10336633
-0.09254698 -0.080769636 0.053419903 -0.08894942 -0.0029750487 -0.010701342 0.008794409 -0.0011667478
-0.09144633 0.06444574 -0.14679936 0.0278025 0.091530204 0.012428066 -0.04990023 -0.12546848
0.0040186793 -0.14525305 0.037829623 0.0054160426 -0.1630585 -0.15058613 -0.074826375 -0.073171385
0.07683722 0.03398951 -0.08903289 0.057039127 -0.010896999 -0.058562547 -0.027432678 0.047260247
0.0005322235 -0.124964744 0.047273427 -0.12216429 0.06138456 -0.06181128 -0.10809205 -0.12675105
0.0012968723 -0.08942586 -0.14156412 -0.049037807 -0.019759823 -0.029177789 0.07673025 -0.088255905
-0.01283927 -0.032830335 0.033004608 -0.054592073 0.00088635046 0.036024053 -0.0009950672 -0.0043165046
0.055094723 -0.004614508 0.016733704 -0.08748663 0.022778424 0.039370812 0.0036567727 -0.1890537
0.007456929 -0.14599973 -0.021414908 -0.1115637 -0.08426152 -0.048516095 -0.12749033 -0.013544201
0.01004624 -0.008187245 -0.056096792 -0.17371851 -0.08474943 -0.00068616535 -0.016972797 0.09937495
-0.14555007 -0.102155596 0.01712443 -0.04960101 0.0015816342 -0.12223947 -0.0532142 -0.03657816
-0.07231847 -0.091607034 0.08738454 -0.13300185 0.0073236185 -0.1139677 0.040684637 -0.06462192
-0.071717 -0.016872816 -0.028526362 0.07153105 -0.07372339 -0.08265255 -0.013657588 -0.0005177405
-0.09601144 0.03824736 0.023027215 -0.15362205 -0.033122323 -0.024188451 -0.18345049 -0.0017679652
0.05539819 0.0049004634 -0.01830471 -0.0028846243 -0.10999725 0.05130289 0.046596874 -0.035698794
0.008138644 0.046200376 -0.03370245 0.028985837 0.03874658 -0.028953051 -0.016335689 -0.046324056
-0.12319561 -0.000200025 -0.060560454 -0.0011014245 0.016429769 -0.061279044 0.0014813716 -0.030271078
-0.11572035 0.01837508 0.08824448 0.06521743 -0.049959574 -0.091508046 -0.03727308 -0.03191569
-0.18473111 -0.029493963 -0.13280572 0.03071549 -0.034791216 -0.044969574 0.13107187 -0.074503094
0.045793466 -0.022466106 0.116045825 0.06797292 0.010732924 0.06818349 -0.042404663 -0.049100783
0.036235522 -0.0007825768 -0.027048182 -0.027778044 -0.13553622 -0.053385507 -0.06344412 0.010527575
0.018021172 -0.17737477 -0.08678508 -0.09802478 -0.0035505896 -0.039516605 0.01252695 -0.002846153
0.069406144 -0.08819337 -0.05110037 -0.1546123 0.010072906 0.007431682 -0.18868352 0.0073959758
-0.052012123 0.010271066 -0.019621205 -0.0045868238 -0.14860028 0.14035274 -0.044387184 0.024439378
00000000: b938 4dbd 9e07 cdbd 734b 153c 990b 183c
00000010: 24af b3bb 1a48 3fbe 6367 0ebc b16f b2bd
00000020: e51c 88bd 6715 2c3d 12d3 d4bc c86c c33d
00000030: 48ae 4dbd 0cc7 e03c f739 783d db2a 743d
00000040: 9781 cb3b 8fbf a4bd 7fe3 03be d967 aebd
00000050: 33f5 bbbc 55ea c5bd 51b5 a6bc d17f 093b
00000060: 1264 60bc cb26 8bbd bb0a 8cbd dc3b 3fbe
00000070: cb29 05bc 4563 efbd 2260 673d 3230 913c
00000080: d166 55bd 685f 61bc 5cff fdbc c1ba a9bc
00000090: ccd7 68bd 36c9 05be d895 973d 2794 283d
000000a0: ac7c ccbc 8198 f8bc f518 21bc 20b8 24bd
000000b0: f017 11bd 47e7 ee3c 6cc0 26bc e780 093d
000000c0: 52f6 04be 2d87 07bd 4b03 363d f156 383c
000000d0: e846 37bd 7b95 22bd ff81 1c3d e699 4f3b
000000e0: d22d b9bd 0c6b 2fbe fd2f 1e3d 3887 77bc
000000f0: 1aee 193d e5f6 023c 07b8 fb3a bab1 d3bd
00000100: 4589 bdbd 8d6a a5bd d4ce 5a3d 1d2b b6bd
00000110: 09f9 42bb ae54 2fbc 6d16 103c 8fed 98ba
00000120: 3748 bbbd 21fc 833d 9252 16be 12c2 e33c
00000130: 3074 bb3d 169f 4b3c 2f64 4cbd cf7a 00be
00000140: 20af 833b 37bd 14be 3cf3 1a3d 0f79 b13b
00000150: cff8 26be 4033 1abe 923e 99bd e1da 95bd
00000160: d55c 9d3d 9638 0b3d e056 b6bd dca1 693d
00000170: 5489 32bc 48df 6fbd 7fba e0bc f693 413d
00000180: ea84 0b3a 84ed ffbd c8a1 413d 4531 fabd
00000190: 606e 7b3d d32d 7dbd 5d5f ddbd 07cb 01be
000001a0: d0fb a93a e824 b7bd 2ff6 10be dedb 48bd
000001b0: 5adf a1bc 4206 efbc c024 9d3d 83bf b4bd
000001c0: cd5b 52bc 1a79 06bd d72f 073d f09b 5fbd
000001d0: f959 683a f58d 133d ea6c 82ba 7771 8dbb
000001e0: 01ab 613d 4c35 97bb 1f15 893c 312c b3bd
000001f0: d199 ba3c 4a43 213d 77a6 6f3b 4b97 41be
00000200: 4159 f43b f480 15be 516e afbc 827b e4bd
00000210: 4e91 acbd d0b8 46bd d38c 02be 7fe8 5dbc
00000220: fc98 243c cb23 06bc c0c5 65bd 44e3 31be
00000230: 1c91 adbd c7df 33ba 890a 8bbc 1885 cb3d
00000240: 140b 15be f436 d1bd 8848 8c3c 6e2a 4bbd
00000250: d64e cf3a b058 fabd 22f7 59bd fbd2 15bd
00000260: b51b 94bd 789c bbbd aaf6 b23d a331 08be
00000270: f7fa ef3b e667 e9bd efa4 263d 7f58 84bd
00000280: 5de0 92bd dc38 8abc 1eb0 e9bc df7e 923d
00000290: 4afc 96bd bd45 a9bd 13c4 5fbc fab8 07ba
000002a0: a5a1 c4bd 44a9 1c3d 92a3 bc3c 194f 1dbe
000002b0: 46ab 07bd dc26 c6bc 72da 3bbe 11bb e7ba
000002c0: 36e9 623d 1194 a03b c2f3 95bc f70b 3dbb
000002d0: 3d46 e1bd fb22 523d 5ddc 3e3d e638 12bd
000002e0: f257 053c 9b3c 3d3d 950b 0abd b573 ed3c
000002f0: bcb4 1e3d f32e edbc 6cd2 85bc 4bbe 3dbd
00000300: fb4d fcbd cdbd 51b9 3d0e 78bd ac5d 90ba
00000310: b997 863c bcff 7abd 952a c23a 0dfb f7bc
00000320: cafe ecbd 5687 963c 86b9 b43d b790 853d
00000330: 69a2 4cbd 9268 bbbd a8ab 18bd 07ba 02bd
00000340: 272a 3dbe 539d f1bc 39fe 07be 0d9f fb3c
00000350: 3c81 0ebd 0432 38bd b437 063e 1495 98bd
00000360: ee91 3b3d d70a b8bc 6fa9 ed3d 6335 8b3d
00000370: 25d9 2f3c c9a3 8b3d 83b0 2dbd e71d 49bd
00000380: b36b 143d d725 4dba 2694 ddbc c88e e3bc
00000390: 02ca 0abe c3aa 5abd feee 81bd da7b 2c3c
000003a0: 23a1 933c bba1 35be 60bc b1bd 37c1 c8bd
000003b0: 02b1 68bb 2adc 21bd d63d 4d3c 8686 3abb
000003c0: cf24 8e3d ba9e b4bd 9f4e 51bd b052 1ebe
000003d0: d408 253c 7885 f33b 4136 41be f159 f23b
000003e0: aa0a 55bd f947 283c a6bc a0bc 114d 96bb
000003f0: ac2a 18be a1b8 0f3e 56cf 35bd 1735 c83c

network_body._body_endoder.seq_layers.2.weight f4 [256, 256]
-0.050035268 -0.19513917 -0.034564633 -0.13796058 -0.12080143 -0.03397779 -0.044470824 -0.077598564
-0.031489857 0.021363618 0.011043331 0.0011868739 0.013097727 -0.10071665 -0.082993045 -0.06652154
0.04283313 0.065761715 -0.1052946 0.0058573107 0.049889736 0.04872301 -0.007503806 -0.077739514
-0.062435687 0.04718865 -0.20665951 -0.031797413 0.050330035 -0.060560964 0.10499806 -0.1699457
-0.1557169 -0.20943472 -0.07083251 -0.11337181 -0.028266214 -0.15417716 -0.021018349 0.013873134
-0.08229092 -0.11101422 -0.047190208 0.08145933 0.07788486 -0.08510815 -0.17355351 -0.018827999
0.11307672 0.016163448 0.031098278 0.10076348 -0.16491692 -0.115626 -0.10311229 -0.039105907
0.03413495 -0.088937655 -0.16700222 0.102856725 -0.052140124 0.025779901 -0.059488952 -0.1163309
0.030026454 -0.1786004 -0.089849785 -0.034079697 0.063548155 -0.18395112 0.08016614 -0.0024292273
-0.13966246 -0.07005257 -0.17310368 -0.12821671 -0.09157736 -0.056376886 0.028197922 -0.085811414
-0.008320699 0.06143362 -0.062036954 0.12371417 -0.048523623 -0.15759578 -0.2063228 -0.05643251
-0.019062493 -0.0071015544 -0.007995235 -0.03299323 -0.12508965 0.05141698 -0.009421325 -0.056088116
-0.06889263 -0.049740262 -0.06181764 -0.034638483 -0.023702733 -0.052202653 -0.0453207 -0.07612973
0.011959015 -0.041354716 -0.045343 0.00559152 -0.27247593 -0.11802167 -0.15296662 0.06330384
-0.07860306 -0.004809179 -0.29956138 -0.0012268956 -0.06708415 -0.21377134 0.06348456 -0.017801207
-0.059122402 0.05890185 -0.09011154 0.0385847 0.009560712 -0.010964139 -0.05220287 -0.17010793
-0.0863122 -0.051474962 0.013499319 -0.07239604 -0.08106842 0.11032634 -0.08081528 -0.1343149
-0.08091135 -0.1163046 0.09352408 -0.15083773 0.0045056827 0.18534915 -0.13170564 -0.061720945
-0.034623787 -0.053519923 -0.08655233 -0.014948899 -0.07984658 -0.19533892 -0.08818958 -0.0020629403
-0.07008414 -0.109380364 -0.08879974 -0.056644898 -0.0025296214 -0.0066551664 -0.0308543 0.000801079
-0.029395329 0.06423291 -0.010497859 -0.0054217353 -0.14876355 -0.038822215 -0.15010023 -0.15694883
-0.06390119 -0.09977751 -0.07137405 -0.065117404 -0.037709877 -0.012695539 0.09682137 -0.1256945
-0.037446022 0.03992742 -0.04566064 -0.105495125 -0.015792238 -0.08423031 -0.044619396 -0.121873304
-0.011647027 -0.07686148 -0.057759784 -0.0559282 -0.027794508 0.0651531 -0.1750942 -0.007791218
0.025590409 -0.21828301 -0.031960797 -0.30173495 -0.089806184 0.0057314862 0.07146906 -0.021593021
-0.027506959 -0.03611894 -0.16635916 -0.042830415 -0.15270059 -0.13111995 -0.09754493 -0.09267263
0.049783852 0.002018812 -0.08686092 -0.032414466 -0.14563924 0.026503315 -0.036251787 0.022301706
-0.028347628 -0.1164105 0.021499738 -0.065927766 -0.09282445 0.06287054 -0.13744628 -0.08718084
-0.03294266 -0.18588182 -0.11858556 0.06982173 -0.10213302 -0.0033648128 -0.06319465 -0.077119015
-0.016803619 -0.040335648 -0.04822247 -0.17126241 -0.14474756 -0.15604495 -0.04616805 -0.008391113
0.0062940214 0.0053265044 -0.063137926 -0.06412263 -0.012872258 0.03839627 -0.11998053 -0.0072683753
-0.13473554 -0.13119493 0.061934054 -0.13691375 -0.06719339 0.04898348 0.012175382 0.019292237
00000000: c8f1 4cbd 90d2 47be a593 0dbd 8a45 0dbe
00000010: bd66 f7bd 4c2c 0bbd 0a27 36bd ffeb 9ebd
00000020: 82fb 00bd c102 af3c 16ef 343c e190 9b3a
00000030: d997 563c 8844 cebd 42f8 a9bd 723c 88bd
00000040: cb71 2f3d 14ae 863d b2a4 d7bd afee bf3b
00000050: 2e59 4c3d c791 473d 7de2 f5bb e535 9fbd
00000060: 90bc 7fbd e348 413d 8d9e 53be 013e 02bd
00000070: de26 4e3d c60e 78bd 3909 d73d 3f06 2ebe
00000080: 4074 1fbe 0e76 56be a310 91bd 7b2f e8bd
00000090: 8c8e e7bc 9ee0 1dbe ac2e acbc 244c 633c
000000a0: 2488 a8bd 6c5b e3bd 854a 41bd 26d4 a63d
000000b0: 1982 9f3d 2f4d aebd 03b8 31be 2d3d 9abc
000000c0: c494 e73d 3569 843c d1c1 fe3c 155d ce3d
000000d0: fbdf 28be 53cd ecbd 892c d3bd 842d 20bd
000000e0: 17d1 0b3d f224 b6bd a102 2bbe 8ca6 d23d
000000f0: e290 55bd 5f30 d33c b0aa 73bd e53e eebd
00000100: 0afa f53c 06e3 36be 2a03 b8bd 2797 0bbd
00000110: 8925 823d af5d 3cbe 252e a43d ac33 1fbb
00000120: ad03 0fbe b977 8fbd 1742 31be 3e4b 03be
00000130: e98c bbbd 73eb 66bd 54ff e63c e5bd afbd
00000140: 8b53 08bc d2a1 7b3d 761a 7ebd db5d fd3d
00000150: b5c0 46bd ca60 21be 4946 53be c725 67bd
00000160: f228 9cbc 28b4 e8bb 72fe 02bc e923 07bd
00000170: 8017 00be 9c9a 523d e75b 1abc a7bc 65bd
00000180: 9417 8dbd 72bc 4bbd 7e34 7dbd 15e1 0dbd
00000190: 3c2c c2bc 73d2 55bd 33a2 39bd e7e9 9bbd
000001a0: bfef 433c 9063 29bd 95b9 39bd 1239 b73b
000001b0: f781 8bbe 58b5 f1bd 48a3 1cbe 72a5 813d
000001c0: a4fa a0bd 5196 9dbb 1c60 99be c9cf a0ba
000001d0: 6a63 89bd e0e6 5abe 3104 823d d6d3 91bc
000001e0: 552a 72bd 1143 713d 668c b8bd fe0a 1e3d
000001f0: 88a4 1c3c efa2 33bc add2 55bd c630 2ebe
00000200: 73c4 b0bd 69d7 52bd 3f2c 5d3c 6044 94bd
00000210: 3307 a6bd c7f2 e13d 7b82 a5bd d889 09be
00000220: dab4 a5bd 1b31 eebd 8e89 bf3d 3575 1abe
00000230: 68a4 933b 2bcc 3d3e d8dd 06be 1acf 7cbd
00000240: acd1 0dbd b537 5bbd 5942 b1bd 3aec 74bc
00000250: 9b86 a3bd ed06 48be bd9c b4bd 6532 07bb
00000260: 4688 8fbd d002 e0bd a3dc b5bd 7b04 68bd
00000270: 01c8 25bb 9513 dabb 28c2 fcbc 80ff 513a
00000280: 79ce f0bc 8b8c 833d 36ff 2bbc d0a8 b1bb
00000290: 7955 18be 0b04 1fbd e0b3 19be 32b7 20be
000002a0: a1de 82bd 2758 ccbd 8f2c 92bd 465c 85bd
000002b0: ac75 1abd f300 50bc 484a c63d 0fb6 00be
000002c0: 0061 19bd ef8a 233d a706 3bbd d40d d8bd
000002d0: b95e 81bc f180 acbd d4c2 36bd b698 f9bd
000002e0: 2cd3 3ebc 8d69 9dbd 8695 6cbd f814 65bd
000002f0: 4fb1 e3bc fd6e 853d e54b 33be 794d ffbb
00000300: faa2 d13c 9585 5fbe 53e9 02bd 017d 9abe
00000310: 4eec b7bd 31cf bb3b 5f5e 923d d9e3 b0bc
00000320: 4656 e1bc 74f1 13bd 0e5a 2abe f26e 2fbd
00000330: 8b5d 1cbe 4f44 06be a3c5 c7bd 26cb bdbd
00000340: 27ea 4b3d 0c4e 043b 23e4 b1bd 08c5 04bd
00000350: 7422 15be 7b1d d93c c17c 14bd 11b2 b63c
00000360: 4939 e8bc a168 eebd 3820 b03c 2305 87bd
00000370: bf1a bebd 45c2 803d b8be 0cbe de8b b2bd
00000380: e2ee 06bd ce57 3ebe fcdc f2bd b2fe 8e3d
00000390: 1e2b d1bd 3184 5cbb 326c 81bd 93f0 9dbd
000003a0: bea7 89bc fe36 25bd ed84 45bd 6a5f 2fbe
000003b0: b438 14be 3fca 1fbe b61a 3dbd e17a 09bc
000003c0: 143e ce3b f589 ae3b 754e 81bd ba52 83bd
000003d0: 2ae6 52bc 6845 1d3d 5ab8 f5bd 8d2b eebb
000003e0: 1df8 09be f757 06be 90ae 7d3d 1e33 0cbe
000003f0: b09c 89bd e7a2 483d 417b 473c c10a 9e3c

network_body._body_endoder.seq_layers.2.bias f4 [256]
-0.014535684 -0.06293284 -0.031054305 0.005700028 -0.011087571 0.01423972 0.050564125 -0.12283402
-0.0742423 -0.019561145 -0.061943136 -0.07892309 0.0133542 -0.03405664 -0.020276107 -0.12223844
-0.0332118 -0.016074158 0.035354115 -0.059903327 -0.021610478 0.025897402 -0.062922046 -0.013458788
-0.055255298 -0.08321239 -0.04738696 -0.11323916 -0.08199062 -0.025158243 0.00053691125 -0.049197003
-0.011086596 -0.021407094 0.0076815537 -0.025773302 0.0036816779 -0.087653786 0.011626204 -0.07041738
-0.04974462 -0.0005844508 0.013067631 -0.027274309 0.0215397 -0.0054374062 0.006903253 -0.05408887
-0.079423815 -0.029027238 -0.013807124 -0.04752616 -0.09341339 -0.0485416 0.0021510185 -0.007025242
-0.031916622 0.01732683 0.04023187 -0.03212507 -0.035043232 -0.038054332 9.9802404e-05 -0.042792104
-0.03088258 -0.06706683 -0.0077861464 -0.058137476 0.0515238 -0.0891321 0.015216035 0.015067781
0.013565295 0.0056166537 -0.039401956 -0.013915894 -0.013783245 -0.09427489 -0.0036299664 -0.04408388
-0.0520204 -0.05577261 -0.01400724 -0.04267868 -0.0061125676 -0.0502946 -0.020003784 0.0016810944
-0.04039084 -0.030990371 -0.010220727 0.046362977 0.00913939 -0.08408464 0.010851259 -0.034259923
-0.014175244 -0.071718395 -0.04366008 0.010042692 -0.041982897 -0.0039409767 0.022656988 -0.0238997
-0.04282803 -0.06334484 -0.06412684 -0.06397409 0.050566696 -0.06052209 -0.079213254 0.02582176
-0.002718753 0.021096034 -0.06095633 -0.03953848 -0.044871163 -0.04007621 -0.06499378 -0.03046352
-0.02154796 -0.036998447 -0.042855788 -0.022104306 -0.056732345 -0.075353906 0.0457225 -0.030580563
-0.023497447 -0.064520344 -0.04753417 -0.028359897 -0.05727298 -0.034995724 -0.047694627 0.01966795
-0.036842402 -0.016103907 0.02619028 0.03696025 -0.027543074 -0.029617539 -0.051121097 -0.043616988
-0.014096298 -0.04730744 -0.012719047 -0.083265506 -0.05340744 -0.06741959 0.010157111 0.0016626953
-0.02814864 -0.06050493 -0.059831668 -0.017746504 -0.050013427 -0.05311583 -0.0026405596 0.0291304
-0.052750465 -0.025541503 -0.06733027 -0.059574604 -0.044699345 0.016650513 -0.048915062 -0.07914681
-0.046957795 -0.095168516 -0.051010296 -0.083721615 0.002141965 -0.004413401 -0.044622164 -0.04399312
-0.0118046515 -0.067521974 -0.0094466405 -0.038796652 0.038297426 -0.060498774 -0.016695864 0.010170603
-0.0058285743 -0.03085829 -0.06324693 -0.009925837 -0.023648754 -0.024053723 -0.041480448 -0.07062687
0.023736965 0.0034342876 -0.016512856 -0.041835077 -0.03901054 -0.001759374 -0.053046227 -0.096358165
0.022668058 0.0074338773 -0.06399937 -0.012433136 -0.13006212 -0.078782275 -0.075301915 0.012152606
-0.0386619 0.042873982 -0.07895676 -0.062299464 -0.04362068 0.020894466 -0.037400693 0.047217302
-0.021003254 -0.034144264 -0.0002554963 -0.075130895 0.024835669 0.0103171775 0.05984836 -0.031632308
-0.04465763 -0.11717966 -0.05373239 0.012724731 -0.06756375 -0.037345544 -0.04289572 0.012200804
-0.06721477 0.014621502 -0.044675034 -0.021179441 -0.05848023 -0.00030401992 -0.005912025 -0.048311125
0.0052949963 0.02288185 -0.06322003 -0.035711017 -0.033755533 -0.052205946 -0.033545263 0.03848949
-0.086537756 -0.026608251 0.027302902 -0.05934125 -0.1174599 -0.06391124 -0.01798278 -0.015862308
00000000: 1427 6ebc efe2 80bd 9965 febc 4dc7 ba3b
00000010: a5a8 35bc b74d 693c 541c 4f3d 6790 fbbd
00000020: 590c 98bd b23e a0bc 16b8 7dbd 6ea2 a1bd
00000030: 93cb 5a3c fa7e 0bbd 141a a6bc 2658 fabd
00000040: 1909 08bd f4ad 83bc 7acf 103d 315d 75bd
00000050: 7508 b1bc ca26 d43c 46dd 80bd 4082 5cbc
00000060: 6153 62bd 426b aabd d418 42bd efe9 e7bd
00000070: b3ea a7bd a918 cebc 81bf 0c3a cc82 49bd
00000080: 8ea4 35bc ee5d afbc 8bb5 fb3b 8822 d3bc
00000090: 4e48 713b d483 b3bd d57b 3e3c fd36 90bd
000000a0: 04c1 4bbd d435 19ba 9e19 563c 5f6e dfbc
000000b0: 0674 b03c 452c b2bb af34 e23b 4a8c 5dbd
000000c0: f4a8 a2bd 88ca edbc 4737 62bc caaa 42bd
000000d0: 854f bfbd 8fd3 46bd 1af8 0c3b 0034 e6bb
000000e0: 01bb 02bd fff0 8d3c 2cca 243d 9495 03bd
000000f0: 7e89 0fbd dcde 1bbd 024d d138 c646 2fbd
00000100: 77fd fcbc 565a 89bd ee22 ffbb 9021 6ebd
00000110: 9f0a 533d e48a b6bd ad4c 793c dbde 763c
00000120: f940 5e3c e80b b83b f263 21bd 7dff 63bc
00000130: 1fd3 61bc 3213 c1bd bbe4 6dbb 4c91 34bd
00000140: 5813 55bd d271 64bd 9f7e 65bc d7cf 2ebd
00000150: ef4b c8bb b601 4ebd fade a3bc 2b58 dc3a
00000160: de70 25bd 85df fdbc d674 27bc 1be7 3d3d
00000170: 61bd 153c 9134 acbd 7bc9 313c 2254 0cbd
00000180: 483f 68bc 18e1 92bd e9d4 32bd 1a8a 243c
00000190: 42f6 2bbd 4f23 81bb 269b b93c 4ec9 c3bc
000001a0: 726c 2fbd f1ba 81bd ef54 83bd d904 83bd
000001b0: 061f 4f3d 03e6 77bd 8f3a a2bd 2888 d33c
000001c0: 1b2d 32bb 97d1 ac3c 58ad 79bd 1af3 21bd
000001d0: d3ca 37bd f426 24bd 751b 85bd a28e f9bc
000001e0: 5985 b0bc af8b 17bd 8d89 2fbd 1714 b5bc
000001f0: 2d60 68bd 2653 9abd 8447 3b3d 1784 fabc
00000200: b87d c0bc 3e23 84bd 31b3 42bd 0453 e8bc
00000210: 1397 6abd ad57 0fbd 715b 43bd ae1e a13c
00000220: 0fe8 16bd 57ec 83bc 008d d63c a263 173d
00000230: 03a2 e1bc 7ba0 f2bc 5b64 51bd baa7 32bd
00000240: 29f4 66bc 72c5 41bd 8d63 50bc 1b87 aabd
00000250: c3c1 5abd 4813 8abd 036a 263c ccee d93a
00000260: fa97 e6bc 04d4 77bd 0d12 75bd 1e61 91bc
00000270: e1da 4cbd fc8f 59bd 3d0d 2dbb e0a2 ee3c
00000280: df10 58bd 6a3c d1bc 74e4 89bd 8004 74bd
00000290: a916 37bd a866 883c 295b 48bd b917 a2bd
000002a0: d156 40bd b6e7 c2bd 2cf0 50bd 3d76 abbd
000002b0: 3660 0c3b 4a9e 90bb bbc5 36bd 2132 34bd
000002c0: 4c68 41bc f648 8abd 15c6 1abc 3de9 1ebd
000002d0: c3dd 1c3d 90cd 77bd c4c5 88bc 9aa2 263c
000002e0: a0fd bebb 86ca fcbc 9b87 81bd fa9f 22bc
000002f0: 08bb c1bc 500c c5bc 67e7 29bd d2a4 90bd
00000300: 0674 c23c c911 613b f845 87bc 425b 2bbd
00000310: 84c9 1fbd cc9a e6ba 0047 59bd 6e57 c5bd
00000320: 5db2 b93c e297 f33b 1a12 83bd 5ab4 4bbc
00000330: 012f 05be 9a58 a1bd e437 9abd b91b 473c
00000340: f15b 1ebd a19c 2f3d 15b4 a1bd b92d 7fbd
00000350: 99ab 32bd df2a ab3c 7831 19bd ee66 413d
00000360: 040f acbc dbda 0bbd 22f4 85b9 3ade 99bd
00000370: 2c74 cb3c 6109 293c 8e23 753d e190 01bd
00000380: ebea 36bd e4fb efbd 7f16 5cbd 647b 503c
00000390: dd5e 8abd a4f7 18bd 6cb3 2fbd e2e5 473c
000003a0: e6a7 89bd 068f 6f3c 2bfd 36bd 8280 adbc
000003b0: f788 6fbd dd64 9fb9 a9b9 c1bb e3e1 45bd
000003c0: a681 ad3b b872 bb3c 8179 81bd b745 12bd
000003d0: 3e43 0abd e7d5 55bd c266 09bd 28a7 1d3d
000003e0: b53a b1bd 8cf9 d9bc 56aa df3c d00f 73bd
000003f0: d18e f0bd e5e3 82bd 9f50 93bc acf1 81bc

network_body._body_endoder.seq_layers.4.weight f4 [256, 256]
-0.033610385 0.02376907 0.12044475 -0.048390765 0.06839825 0.06795519 -0.019984469 -0.013622727
0.023437064 0.054200128 0.014437553 0.11478435 0.043242615 -0.061571073 -0.02322044 -0.10288212
-0.008157029 -0.014468266 -0.098348804 0.10225147 0.044534035 -0.22141103 0.06041305 0.09495509
0.1328143 0.0674143 0.033615667 0.078284755 0.03730342 0.014891942 -0.009889419 0.08840984
-0.015418247 -0.045634698 -0.14368132 -0.026357561 -0.20639163 -0.027820978 0.07089384 0.08647359
-0.0073657185 0.13813144 -0.04066661 -0.017125942 -0.03170721 -0.1138621 -0.0670749 -0.050430786
0.07325175 -0.029510943 0.0398189 0.14899534 -0.016630145 0.07275417 -0.012011093 -0.04570933
-0.07975746 0.08484565 -0.12730874 0.013656701 0.08796473 0.061846353 -0.08411505 0.048769318
-0.0024981147 -0.019406287 0.05179998 0.13218357 -0.067601025 0.10763677 -0.034732245 -0.12996942
-0.063113 0.07664492 0.1662676 -0.08360749 -0.053710286 -0.0240146 -0.057737347 0.00073203293
0.17748371 -0.09856272 0.015665913 -0.045984514 0.0004149001 0.087467074 0.13221192 0.014089805
-0.118530266 -0.15067546 0.06380739 -0.14188218 0.014059027 0.116029136 -0.056870107 0.20596045
-0.18279089 0.051735796 0.10479139 -0.058913168 -0.0084688235 0.013613415 -0.03805321 -0.05047101
0.0054575983 -0.092683785 0.08210555 0.102884345 0.103112064 0.004477882 0.049740646 -0.26675338
0.046176787 0.0034736486 0.011672859 0.10515081 -0.024993546 0.082760155 -0.018272515 -0.016693367
0.115791075 0.18654399 -0.07236028 0.021652063 0.15577608 0.039441377 0.015456964 0.02056886
0.031309817 0.03613359 -0.052666936 0.16093779 0.06881022 0.021584006 0.054704335 -0.0066982727
-0.030673832 0.07370796 -0.020234616 -0.062272772 -0.0803077 0.002199984 0.004213043 0.024737569
-0.047125082 0.12336145 -0.047104966 0.029463008 0.07705629 0.0063569285 -0.19614299 0.04700524
-0.06400424 0.012033963 0.07910032 -0.120400995 -0.15267812 0.04997211 -0.02856383 -0.108505294
0.10193388 0.04804232 0.035407554 -0.053172044 0.17682299 0.06033523 0.08135981 -0.02497414
0.042232253 -0.096812226 0.097366184 0.09578697 0.06742503 0.10185438 0.18482955 0.061520267
0.1369044 -0.0116599845 -0.082448415 -0.07578179 0.015079299 0.06346184 -0.060598545 -0.110164985
0.049277615 0.044345062 0.037600826 0.027763672 0.17306985 0.0032350367 -0.21551573 0.02628587
-0.038015563 -0.101584546 0.23382938 0.04173546 0.13378525 0.027069846 0.07966056 0.05275558
0.038380526 -0.09666737 -0.0072020013 -0.010748647 0.06261248 -0.012324543 0.007191672 0.02799522
0.11747705 -0.02087365 0.0014582423 -0.12442464 0.030076096 -0.0433664 -0.05245713 -0.07588551
0.16667575 0.12952311 0.074353404 0.05106971 -0.034680042 -0.042449616 -0.12789567 0.12080305
-0.15193012 -0.030824209 0.0857723 -0.19157815 -0.09158057 0.09878706 0.08958581 -0.020777151
0.14038056 0.03307349 -0.03795586 0.10420951 -0.00040302062 0.10831211 -0.025313191 0.0050916295
-0.21773769 -0.21596609 0.051561344 0.033702493 -0.1696193 0.16045097 -0.054163497 -0.13212533
-0.03783175 -0.03734581 0.027983584 0.047195826 0.06574833 0.07656286 -0.08462963 0.03228945
00000000: 0bab 09bd 5ab7 c23c bdab f63d 6535 46bd
00000010: 6214 8c3d 172c 8b3d 78b6 a3bc dc31 5fbc
00000020: 16ff bf3c f400 5e3d 7c8b 6c3c 0f14 eb3d
00000030: 2b1f 313d f331 7cbd cb38 bebc dcb3 d2bd
00000040: 0fa5 05bc 4e0c 6dbc 196b c9bd 3869 d13d
00000050: 5269 363d 93b9 62be ad73 773d d077 c23d
00000060: 7900 083e 8210 8a3d 95b0 093d c253 a03d
00000070: 79cb 183d 55fd 733c 3b07 22bc 3810 b53d
00000080: d19c 7cbc 73eb 3abd 3221 13be d0eb d7bc
00000090: 5458 53be d2e8 e3bc ca30 913d 1119 b13d
000000a0: 205c f1bb 5472 0d3e 0892 26bd b44b 8cbc
000000b0: 6bdf 01bd 8830 e9bd 915e 89bd 8390 4ebd
000000c0: 0305 963d efc0 f1bc 2519 233d 3c92 183e
000000d0: f13b 88bc 2300 953d 2dca 44bc b539 3bbd
000000e0: e157 a3bd 8ec3 ad3d 395d 02be 5bc0 5f3c
000000f0: da26 b43d 9a52 7d3d 8344 acbd 56c2 473d
00000100: 69b7 23bb eff9 9ebc 372c 543d 215b 073e
00000110: 6872 8abd ab70 dc3d 6643 0ebd b416 05be
00000120: 6341 81bd 03f8 9c3d 0e42 2a3e 673a abbd
00000130: 51ff 5bbd 44ba c4bc ff7d 6cbd e6e5 3f3a
00000140: 4abe 353e 40db c9bd cd55 803c 425a 3cbd
00000150: f386 d939 f021 b33d 9062 073e edd8 663c
00000160: ffbf f2bd ab4a 1abe 73ad 823d 9049 11be
00000170: d557 663c afa0 ed3d a1f0 68bd 4ce7 523e
00000180: 892d 3bbe eae8 533d de9c d63d ef4e 71bd
00000190: d2c0 0abc cd0a 5f3c afdd 1bbd b1ba 4ebd
000001a0: a7d5 b23b ffd0 bdbd f426 a83d 07b5 d23d
000001b0: 6b2c d33d 32bb 923b d9bc 4b3d e693 88be
000001c0: df23 3d3d 27a6 633b 853f 3f3c 4f59 d73d
000001d0: 44bf ccbc 287e a93d 3eb0 95bc 87c0 88bc
000001e0: df23 ed3d 6305 3f3e a031 94bd ab5f b13c
000001f0: c483 1f3e 488d 213d 353f 7d3c 0780 a83c
00000200: b93e 003d d100 143d 49b9 57bd e0cc 243e
00000210: 5fec 8c3d f1d0 b03c a711 603d 2f7d dbbb
00000220: b047 fbbc 33f4 963d 11c3 a5bc bc11 7fbd
00000230: 5d78 a4bd 9b2d 103b 910d 8a3b 71a6 ca3c
00000240: 3b06 41bd eea4 fc3d 23f1 40bd 685c f13c
00000250: b0cf 9d3d c84d d03b b5d9 48be 9188 403d
00000260: a814 83bd 192a 453c 59ff a13d cc94 f6bd
00000270: a757 1cbe 8eaf 4c3d b1fe e9bc 0638 debd
00000280: b6c2 d03d 06c8 443d 8307 113d eeca 59bd
00000290: 1611 353e 1322 773d f99f a63d 9196 ccbc
000002a0: bafb 2c3d 7d45 c6bd ec67 c73d f52b c43d
000002b0: 2216 8a3d 0799 d03d f543 3d3e adfc 7b3d
000002c0: ab30 0c3e 8509 3fbc b7da a8bd 7c33 9bbd
000002d0: 2a0f 773c 48f8 813d 2e36 78bd 2e9e e1bd
000002e0: 53d7 493d 2ba3 353d 5303 1a3d a470 e33c
000002f0: 3939 313e e902 543b 28b0 5cbe 7755 d73c
00000300: 35b6 1bbd 8f0b d0bd f870 6f3e cdf2 2a3d
00000310: 00ff 083e 95c1 dd3c 1325 a33d 3c16 583d
00000320: e634 1d3d 8bf9 c5bd c4fe ebbb 181b 30bc
00000330: f93a 803d e1ec 49bc 1ea8 eb3b 3b56 e53c
00000340: cf97 f03d 38ff aabc 7e22 bf3a 58d2 febd
00000350: 2562 f63c f7a0 31bd 4add 56bd dd69 9bbd
00000360: 0cad 2a3e b5a1 043e 9946 983d 792e 513d
00000370: a90c 0ebd a6df 2dbd 15f7 02be 9767 f73d
00000380: 9293 1bbe 0d83 fcbc 63a9 af3d 102d 44be
00000390: 988e bbbd df50 ca3d c478 b73d d834 aabc
000003a0: ecbf 0f3e 1178 073d 9b77 1bbd cc6b d53d
000003b0: 834c d3b9 bdd2 dd3d 9c5d cfbc afd7 a63b
000003c0: a1f6 5ebe 3726 5dbe fd31 533d a00b 0a3d
000003d0: afb0 2dbe 424d 243e 8bda 5dbd dd4b 07be
000003e0: 77f5 1abd ecf7 18bd d43d e53c 6950 413d
000003f0: 0fa7 863d fdcc 9c3d 4d52 adbd f141 043d

network_body._body_endoder.seq_layers.4.bias f4 [256]
-0.08792294 -0.10368574 -0.015392574 -0.023662198 -0.030818524 -0.11680693 -0.0724672 0.009746062
-0.14716598 0.0055666454 -0.0969488 -0.056759648 -0.08737366 -0.12063121 -0.047169242 -0.056922805
0.027714746 -0.040036328 -0.16992034 0.07585425 -0.07611705 -0.035565965 -0.06717485 -0.069178455
-0.03207634 -0.0876438 -0.06311913 -0.14924856 -0.16189907 -0.061829265 -0.057074305 -0.072174415
-0.11239231 0.019622853 0.025810283 -0.014228152 -0.040355124 -0.0427182 -0.0013307013 -0.05754936
-0.027681194 0.025206814 -0.004851917 -0.033994175 0.027714392 0.014653296 -0.02077777 -0.1136661
-0.0030736532 -0.09775824 -0.1358684 -0.109314315 -0.10488101 0.0027011433 -0.07329347 -0.11122631
0.06641832 0.037468877 -0.089178026 -0.049237847 -0.019535508 -0.02583816 0.020372735 -0.12276598
-0.08548598 -0.006333677 -0.20975327 -0.13916846 -0.020536328 -0.07064733 -0.020586599 -0.032149803
-0.12668034 -0.04076708 -0.039514292 -0.07420127 -0.12706175 -0.09311737 -0.0703808 0.008081256
-0.032717 -0.069349304 -0.12328045 0.03162871 -0.094466984 -0.045032326 -0.12516227 -0.05503484
-0.0072380095 0.017057782 -0.09493793 0.0029334766 -0.0030220281 -0.056447424 -0.0038653458 -0.1339738
-0.009062798 0.027200837 -0.01832069 -0.10314872 -0.16423802 0.018053658 -0.00031803068 -0.049778875
-0.04608593 -0.04099497 -0.019748403 -0.10565051 0.017104162 0.04652069 -0.18205924 0.007326398
-0.04644523 0.04251528 -0.04925358 0.036851738 -0.10145208 -0.13857074 0.019910531 -0.017202022
0.021894332 -0.08118752 0.049682062 -0.14156726 -0.023743337 -0.11175204 -0.042794187 -0.030508593
-0.07425061 0.0185053 -0.017853515 -0.06865698 -0.028889773 -0.03156345 -0.0017903029 -0.025034264
-0.03751008 0.0068248045 -0.016203614 -0.11849691 -0.031024275 0.020159343 -0.020495055 -0.03308148
-0.085067794 -0.06624659 -0.053872764 0.038531758 -0.10495402 0.03883495 -0.0613794 -0.067098446
0.0125606675 -0.00052564073 0.003250459 -0.071629696 0.014803853 -0.06199683 -0.0075620743 -0.10029966
0.032991406 -0.13797927 -0.13828868 0.045868505 -0.009513681 -0.040473852 -0.075451724 0.008303124
-0.019916773 0.007401781 -0.03318575 -0.14480059 0.0022845399 0.024340589 -0.030711628 -0.166089
-0.09054752 -0.075660445 -0.05814412 0.00058225257 -0.11857878 -0.06652185 -0.13489868 -0.026423952
-0.012829225 0.006927848 -0.043788128 0.02229415 -0.029575422 -0.08234972 -0.028768249 -0.039211035
-0.03666923 -0.022003137 -0.09581821 -0.14689365 -0.07354026 -0.098398164 -0.13058701 0.003079845
-0.14674102 -0.0003892488 0.009109007 -0.102371074 0.0018808151 -0.072679676 -0.08758023 -0.04911737
-0.1356309 0.018434454 -0.0740684 -0.047149483 -0.11121512 -0.12435049 -0.061190765 -0.095528655
-0.05445949 -0.034645688 -0.10028188 0.0026680338 0.022720253 -0.060712002 -0.100865275 -0.12121427
-0.11914396 0.023634767 0.036914613 -0.025357615 -0.080315545 -0.030425811 -0.038384803 0.00051158125
-0.14738783 -0.10875987 0.01651857 -0.045778316 -0.061508156 -0.0136330705 -0.10718323 -0.056433648
-0.036880042 -0.042886004 -0.0017353294 0.039746042 -0.09813551 -0.09342009 -0.16268764 -0.15578587
-0.022960646 -0.06304534 0.008095855 -0.0971996 -0.027758846 -0.112579435 -0.121255934 -0.08423915
00000000: f110 b4bd 3059 d4bd 2231 7cbc 3ad7 c1bc
00000010: 2177 fcbc 7938 efbd af69 94bd f2ad 1f3c
00000020: aeb2 16be 6868 b63b 188d c6bd ce7c 68bd
00000030: f6f0 b2bd 7f0d f7bd 8934 41bd e327 69bd
00000040: 090a e33c 22fd 23bd 99ff 2dbe 7959 9b3d
00000050: 42e3 9bbd 9ead 11bd f892 89bd 6fad 8dbd
00000060: 7b62 03bd 987e b3bd 9a44 81bd 9dd4 18be
00000070: dfc8 25be af40 7dbd bfc6 69bd 2ed0 93bd
00000080: f02d e6bd 1bc0 a03c 1670 d33c 321d 69bc
00000090: 6a4b 25bd 47f9 2ebd ed6a aeba e1b8 6bbd
000000a0: acc3 e2bc 857e ce3c d4fc 9ebb 7a3d 0bbd
000000b0: 4b09 e33c 6114 703c 2436 aabc c6c9 e8bd
000000c0: 586f 49bb 7935 c8bd 1621 0bbe 2fe0 dfbd
000000d0: dbcb d6bd aa05 313b e31a 96bd 9fca e3bd
000000e0: 5406 883d f778 193d f8a2 b6bd a0ad 49bd
000000f0: ee08 a0bc 8daa d3bc b9e4 a63c bb6c fbbd
00000100: 4613 afbd bc8a cfbb 90c9 56be 2d82 0ebe
00000110: cd3b a8bc 8caf 90bd 3aa5 a8bc 83af 03bd
00000120: 7eb8 01be 62fb 26bd bdd9 21bd d6f6 97bd
00000130: 7a1c 02be 52b4 bebd cf23 90bd 3f67 043c
00000140: 4302 06bd 0207 8ebd 767a fcbd 1b8d 013d
00000150: e877 c1bd d173 38bd 8a2a 00be 366c 61bd
00000160: d32c edbb c3bc 8b3c d16e c2bd 923f 403b
00000170: 380d 46bb 6a35 67bd be51 7dbb 6e30 09be
00000180: 217c 14bc 4ad4 de3c 4615 96bc a33f d3bd
00000190: 032e 28be 44e5 933c 5bbd a6b9 efe4 4bbd
000001a0: 9ac4 3cbd 57ea 27bd 67c7 a1bc 4b5f d8bd
000001b0: 071e 8c3c 7b8c 3e3d bd6d 3abe 4812 f03b
000001c0: 5a3d 3ebd 8124 2e3d 1fbe 49bd d9f1 163d
000001d0: 1cc6 cfbd 7de5 0dbe 691b a33c 41eb 8cbc
000001e0: be5b b33c a445 a6bd 6b7f 4b3d 02f7 10be
000001f0: 6381 c2bc 41de e4bd f548 2fbd 28ed f9bc
00000200: b410 98bd 6d98 973c 8941 92bc 089c 8cbd
00000210: 3faa ecbc ad48 01bd 99a8 eaba a814 cdbc
00000220: 2ba4 19bd 9ca2 df3b 71bd 84bc 82ae f2bd
00000230: 9f26 febc 3525 a53c 3fe5 a7bc 7280 07bd
00000240: 0638 aebd 4bac 87bd b0a9 5cbd 7ad3 1d3d
00000250: 22f2 d6bd 6611 1f3d f768 7bbd e96a 89bd
00000260: 42cb 4d3c 27cb 09ba a705 553b 97b2 92bd
00000270: dc8b 723c 63f0 7dbd 47cb f7bb e869 cdbd
00000280: ff21 073d 704a 0dbe 8c9b 0dbe 9de0 3b3d
00000290: 45df 1bbc e9c7 25bd 6f86 9abd d409 083c
000002a0: 8028 a3bc a48a f23b c8ed 07bd 9b46 14be
000002b0: 38b8 153b ea65 c73c f496 fbbc 3c13 2abe
000002c0: fa70 b9bd ddf3 9abd 8728 6ebd 4fa2 183a
000002d0: 6ed9 f2bd 9c3c 88bd e122 0abe 0b77 d8bc
000002e0: ab31 52bc 0003 e33b 2e5b 33bd 39a2 b63c
000002f0: 2848 f2bc f8a6 a8bd 64ab ebbc c09b 20bd
00000300: 7932 16bd ec3f b4bc 563c c4bd 4a6b 16be
00000310: 479c 96bd fa84 c9bd 9ab8 05be 3ad7 493b
00000320: 4743 16be 1714 ccb9 f23d 153c eda7 d1bd
00000330: af85 f63a 15d9 94bd 435d b3bd 4c2f 49bd
00000340: d4e2 0abe da03 973c 2cb1 97bd d11f 41bd
00000350: c1c4 e3bd 78ab febd 2ba3 7abd 87a4 c3bd
00000360: ea10 5fbd a3e8 0dbd 9660 cdbd 2eda 2e3b
00000370: d31f ba3c 26ad 78bd 7492 cebd 303f f8bd
00000380: c001 f4bd b39d c13c c733 173d c6ba cfbc
00000390: 7a7c a4bd 8d3f f9bc 6239 1dbd a31b 063a
000003a0: d6ec 16be 7fbd debd f451 873c 0b82 3bbd
000003b0: faef 7bbd 3e5d 5fbc e282 dbbd f826 67bd
000003c0: 870f 17bd 3ca9 2fbd fe73 e3ba bfcc 223d
000003d0: 45fb c8bd 0853 bfbd 9797 26be 5586 1fbe
000003e0: f717 bcbc ea1d 81bd 7aa4 043c 9510 c7bd
000003f0: 8566 e3bc 0c90 e6bd 0855 f8bd 9385 acbd

action_model._continuous_distribution.mu.weight f4 [2, 256]
-0.030994358 -0.0060485685 0.006677422 -0.02616672 -0.004559026 -0.040154923 0.07980481 -0.017017342
0.02237241 -0.021234617 -0.018856304 0.012645952 -0.031825006 -0.048868697 0.030936232 -0.008661359
0.09868166 -0.022721449 -0.09381688 -0.053840447 -0.049261615 -0.004896715 -0.0071431156 -0.021198096
0.079777054 -0.0033988866 -0.026073828 -0.02314219 -0.012699953 -0.02170303 -0.06831287 -0.020108735
-0.024922604 0.06093816 -0.07456602 0.016028315 0.0052934056 -0.0392827 -0.008941164 -0.003355249
0.0184733 0.00028847685 0.008704743 -0.00733059 0.014465224 0.04391769 0.016767269 -0.042677805
-0.018296173 -0.013002953 -0.041904204 -0.029453842 0.034145467 -0.032410577 0.00081249117 -0.03757013
0.00561271 -0.03383667 -0.033268634 -0.026437894 -0.021139316 0.0069587417 -0.015579476 -0.01868881
-0.052222863 -0.006398743 -0.03547776 -0.01927349 -0.0011784238 0.0034620352 -0.0613607 0.011221899
-0.072601534 -0.0033761435 -0.02769466 0.0095544895 0.015639123 -0.018070068 0.011562967 -0.050017353
0.003122059 0.011909965 -0.06569774 -4.228198e-05 -0.07415398 0.0068888348 -0.011026973 -0.0010696306
-0.016831916 0.04961298 -0.016285226 -0.045052726 0.010084071 -0.046994932 0.0055591497 -0.009727262
0.051568627 0.0022639425 0.0063712755 -0.028029783 -0.05845542 -0.020000024 -0.05518066 -0.02152995
0.0045435666 0.050328415 0.00081527594 0.000392422 0.02382992 0.028020449 0.007687349 -0.023546755
-0.016521854 -0.010730257 0.05603702 -0.011600102 0.0070100096 -0.04772346 0.026094126 -0.071089245
0.038983274 -0.017299173 -0.043512158 -0.020812484 -0.00092227646 0.0027155858 -0.022071037 0.008886312
0.022551073 -0.044629082 -0.09303856 0.015436146 -0.02251482 0.09887442 -0.028396778 -0.017530333
-0.010270431 0.009470406 0.016967429 -0.062402256 -0.037676584 -0.0012306857 0.013758916 0.045106214
0.060844027 -0.013491736 -0.0062305424 0.0024855917 0.037461426 0.05601757 -0.01015523 -0.018553209
-0.08710872 0.008801164 0.046763804 -0.02679017 0.05164241 0.0032967816 -0.03584301 -0.0052210093
0.07704825 -0.05919414 -0.024675729 0.053869803 -0.021431932 -0.021470528 -0.010738603 0.00045369798
0.013066432 -0.014240501 0.007158913 -0.040962867 0.017224714 0.013359991 -0.021162288 0.008107963
-0.019326685 -0.0314647 0.0031856028 0.009277752 0.015696058 -0.0175096 -0.0073305573 0.012172471
0.014715302 -0.0042012413 -0.012142477 0.039220043 0.06600921 -0.02915247 -0.0175295 -0.0152846165
-0.012960647 -0.068169065 0.025128052 0.016481573 -0.010501488 0.03969212 -0.0073396196 0.010612088
-0.01569694 0.01005339 0.017189028 -0.010967426 0.045159258 -0.022526313 0.014962399 0.058190633
-0.002434669 0.08407009 -0.01355445 0.009987701 0.060155753 -0.017207675 -0.031416878 -0.002284442
-0.00730461 -0.07894426 -0.04657667 -0.019613791 0.005684078 0.043364625 0.0042670122 0.0017267906
-0.052457746 0.015132107 -0.0033976962 -0.014445163 -0.0013684056 -0.033216275 0.021907246 0.0070276246
-0.01531463 -0.039831355 0.03353134 0.010642827 -0.0032759728 -0.011334359 -0.0031432211 0.021675194
0.08464808 -0.14303924 -0.040494062 -0.01318902 -0.0042317417 0.0065380516 -0.016506895 0.010816408
0.009003656 -0.052007444 -0.015619937 0.010593215 0.020257002 -0.03088099 -0.02369442 0.0063377214
00000000: e1e7 fdbc 1233 c6bb 47ce da3b 975b d6bc
00000010: e263 95bb 7d79 24bd b470 a33d f467 8bbc
00000020: 5846 b73c 38f4 adbc 8978 9abc f830 4f3c
00000030: f05a 02bd 8b2a 48bd fb6d fd3c 5fe8 0dbc
00000040: 9c19 ca3d 5522 babc 1023 c0bd cd87 5cbd
00000050: 8cc6 49bd 9f74 a0bb cc10 eabb a1a7 adbc
00000060: 2762 a33d dbbf 5ebb c898 d5bc b194 bdbc
00000070: 7713 50bc 8eca b1bc 9ee7 8bbd 13bb a4bc
00000080: 7d2a ccbc 4b9a 793d 12b6 98bd d04d 833c
00000090: 4e74 ad3b e5e6 20bd f67d 12bc bde3 5bbb
000000a0: 5155 973c b53e 9739 579e 0e3c 7235 f0bb
000000b0: 8cff 6c3c 09e3 333d 835b 893c ecce 2ebd
000000c0: dbe1 95bc 560a 55bc bea3 2bbd 2f49 f1bc
000000d0: 1edc 0b3d f4c0 04bd 5cfd 543a 23e3 19bd
000000e0: d3ea b73b 5298 0abd b144 08bd 4894 d8bc
000000f0: 5c2c adbc 2806 e43b 0f41 7fbc 4619 99bc
00000100: a4e7 55bd 8cac d1bb 2151 11bd 70e3 9dbc
00000110: 5775 9aba 50e3 623b 5b55 7bbd 0edc 373c
00000120: 1db0 94bd 4a42 5dbb e9df e2bc 6f8a 1c3c
00000130: 9e1d 803c ae07 94bc 9972 3d3c ffde 4cbd
00000140: 759b 4c3b 0422 433c 898c 86bd ee57 31b8
00000150: 0bde 97bd bcbb e13b 7aaa 34bc d932 8cba
00000160: 16e3 89bc fb36 4b3d 9868 85bc 3589 38bd
00000170: a937 253c c27d 40bd 8729 b63b 185f 1fbc
00000180: a039 533d a75e 143b 22c6 d03b b79e e5bc
00000190: f36e 6fbd 17d7 a3bc 1e05 62bd 945f b0bc
000001a0: 33e2 943b 2b25 4e3d 3eb8 553a fdbd cd39
000001b0: f736 c33c 248b e53c 28e6 fb3b 20e5 c0bc
000001c0: d758 87bc f6cd 2fbc 1387 653d 5b0e 3ebc
000001d0: 39b4 e53b ad79 43bd 59c3 d53c 3d97 91bd
000001e0: edac 1f3d ffb6 8dbc ce39 32bd f17e aabc
000001f0: edc4 71ba f8f7 313b 52ce b4bc e597 113c
00000200: 07bd b83c fccc 36bd 008b bebd e4e7 7c3c
00000210: 0071 b8bc ac7e ca3d 5ca0 e8bc c69b 8fbc
00000220: 4f45 28bc c329 1b3c 47ff 8a3c 8299 7fbd
00000230: c352 1abd f64e a1ba 146d 613c 4bc1 383d
00000240: 9637 793d 710c 5dbc 9429 ccbb 4fe5 223b
00000250: 2771 193d ae72 653d 1f62 26bc e6fc 97bc
00000260: 0e66 b2bd c232 103c 678b 3f3d 0f77 dbbc
00000270: fe86 533d d10e 583b 1fd0 12bd 0015 abbb
00000280: 79cb 9d3d 8e75 72bd c124 cabc 95a6 5c3d
00000290: 0592 afbc f6e2 afbc f7f0 2fbc 50de ed39
000002a0: 9714 563c fe50 69bc 5195 ea3b aec8 27bd
000002b0: d81a 8d3c dde3 5a3c 895c adbc 43d7 043c
000002c0: ff52 9ebc 21e1 00bd 8cc5 503b b601 183c
000002d0: 0595 803c 4b70 8fbc 2c35 f0bb 0b6f 473c
000002e0: 7318 713c 91aa 89bb 3df1 46bc 32a5 203d
000002f0: d62f 873d 29d1 eebc 079a 8fbc 546c 7abc
00000300: e558 54bc 399c 8bbd 58d9 cd3c 5d04 873c
00000310: 6f0e 2cbc 3494 223d 3181 f0bb 53de 2d3c
00000320: de96 80bc f9b6 243c 01d0 8c3c b8b0 33bc
00000330: eaf8 383d 1a89 b8bc da24 753c 4d59 6e3d
00000340: f88e 1fbb f02c ac3d 7c13 5ebc 74a3 233c
00000350: e165 763d 1cf7 8cbc fcae 00bd 94b6 15bb
00000360: 835b efbb 87ad a1bd 2ec7 3ebd 1aad a0bc
00000370: 8141 ba3b 1b9f 313d 4bd2 8b3b 7a55 e23a
00000380: efdd 56bd a8ec 773c e2ab 5ebb 68ab 6cbc
00000390: 135c b3ba ca0d 08bd d376 b33c fd47 e63b
000003a0: 37ea 7abc 3426 23bd 2958 093d 405f 2e3c
000003b0: b4b1 56bb bfb3 39bc 80fe 4dbb 2d90 b13c
000003c0: f95b ad3d e178 12be 1add 25bd c216 58bc
000003d0: 6caa 8abb 273d d63b 7839 87bc 4e37 313c
000003e0: 1284 133c c205 55bd c4ea 7fbc 2a8f 2d3c
000003f0: 03f2 a53c 21fa fcbc cd1a c2bc a9ac cf3b

action_model._continuous_distribution.mu.bias f4 [2]
-0.038402528 0.046407662
00000000: f84b 1dbd f615 3e3d
