success/train4/Gallina.onnx (onnx, 880670 bytes, 16 tensors)

network_body.observation_encoder.processors.0.conv_layers.0.weight f4 [16, 3, 8, 8]
0	0xbd74a244	-0.05972506
1	0x3ced646e	0.028978553
2	0xbd036640	-0.032079935
3	0xbdf0cf00	-0.11758232
4	0xbd0af781	-0.033927444
5	0x3dc379d5	0.09544722
6	0x3e7b1949	0.24521364
7	0x3dc5c118	0.0965597
8	0xbca1ccc5	-0.019750962
9	0xbe17027b	-0.1474704
10	0xbe2042db	-0.15650503
11	0xbe1fbc04	-0.15599066
12	0xbcfb769a	-0.030696202
13	0xbe0e668a	-0.13906303
14	0x3d90c08d	0.07067976
15	0x3d01745b	0.031605106
16	0xbcc63f35	-0.024200061
17	0xbd86c35e	-0.06580232
18	0xbd4156e0	-0.04720199
19	0xbce6cd0b	-0.028173944
20	0xbdaffc35	-0.085930265
21	0xbe2b0637	-0.1670159
22	0xbd7a9e98	-0.061186403
23	0x3e540588	0.20705235
24	0xbd1a5dc6	-0.037687086
25	0xbde7f43b	-0.1132588
26	0xbcf2ce81	-0.029639484
27	0x3cf0d01b	0.029396107
28	0x3db058e9	0.08610708
29	0x3dd8a34f	0.10578024
30	0xbe36ecd8	-0.17863786
31	0x3e2fc774	0.17165929
32	0x3aabf0bd	0.001311801
33	0xbdf73820	-0.12071252
34	0xbdf79870	-0.12089622
35	0x3da5f624	0.08103588
36	0x3ea93c1e	0.33053678
37	0x3d23748d	0.039906073
38	0x3dbed16d	0.093172885
39	0x3d16db98	0.036830515
40	0x3e31dc2c	0.17369145
41	0xbd31b22d	-0.043382812
42	0xbe49b449	-0.1969768
43	0x3c691c05	0.014227872
44	0x3d5d6e7e	0.05406045
45	0x3d031589	0.03200296
46	0x3e20e6e2	0.15713075
47	0xbc84c3f0	-0.016206712
48	0x3c13b77b	0.009015913
49	0x3b7a5f64	0.003820383
50	0xbd81c239	-0.06335873
51	0xbd4d137e	-0.050067417
52	0xbc7bc004	-0.015365604
53	0x3d6ee64b	0.058325093
54	0xbd4dd136	-0.050248347
55	0xbd91505f	-0.07095408
56	0x3d8d1ee1	0.06890655
57	0x3cfd4555	0.03091685
58	0xbd05587c	-0.03255509
59	0x3c1d2445	0.009591167
60	0xbd2cbcd5	-0.04217227
61	0xbd6f9a34	-0.05849667
62	0x3e0c1396	0.13679346
63	0x3d3c93fc	0.046039566
64	0x3cc4c860	0.024021327
65	0x3d582d10	0.05277735
66	0xbd736af2	-0.059428163
67	0xbd2429b1	-0.040078823
68	0xbc42fe78	-0.01190149
69	0xbc97d14a	-0.018532414
70	0xbd324870	-0.043526113
71	0x3d64a719	0.05582342
72	0x3bb3f6f0	0.0054920837
73	0xbd4cc5ff	-0.04999351
74	0xbd778c4b	-0.06043653
75	0x3d25ddde	0.040494792
76	0xbd87ac3c	-0.06624648
77	0xbd795c90	-0.06087929
78	0x3d8519ae	0.06499039
79	0x3d1a4940	0.037667513
80	0xbaacee00	-0.0013193488
81	0xbc8e8a60	-0.017399967
82	0x3d0d3874	0.034477666
83	0x3d5b54ec	0.053547785
84	0xbd6649cc	-0.056222722
85	0x3d5d5f4c	0.05404596
86	0x3d927998	0.071520984
87	0xbd2a12e5	-0.041521925
88	0xbd83a1d8	-0.064273536
89	0x3cbc2434	0.022966482
90	0x3cf997dc	0.03046792
91	0x3d30afa4	0.043136254
92	0x3d09aaa9	0.03361002
93	0x3ca9a644	0.020709164
94	0x3c8883a4	0.016664334
95	0x3cb58248	0.02215685
96	0x3cee4c78	0.029089198
97	0x3d3ffe4c	0.046873376
98	0xbd5fdb64	-0.054652587
99	0xbd79cdb3	-0.060987186
100	0x3cba71ec	0.0227594
101	0x3d400a80	0.046885014
102	0xbd1c68d6	-0.038185917
103	0xbd93d3c8	-0.072181284
104	0xbd8bfaec	-0.06834969
105	0x3d509b90	0.050929606
106	0x3c4b5278	0.012409799
107	0xbd889f15	-0.066709675
108	0x3cc1ff60	0.023681343
109	0x3cc9f48c	0.024652742
110	0x3d5d5580	0.054036617
111	0xbc4e8a50	-0.012606218
112	0xbcac5348	-0.021035805
113	0x3cf80b40	0.030278802
114	0x3d37ae06	0.044843696
115	0x3d2a50e6	0.041581057
116	0xbb611240	-0.0034343153
117	0xbcf1f4b8	-0.029535636
118	0x3c803548	0.015650406
119	0xbb34b8c0	-0.002757594
120	0x3d39c488	0.045353442
121	0x3c45f5d0	0.012082532
122	0xbd164343	-0.03668524
123	0x3c8ef8d8	0.017452642
124	0xbd075458	-0.03303942
125	0xbd0c34b6	-0.034229957
126	0x3d38512e	0.044999294
127	0xbd92fc68	-0.07177049
128	0x3c8a0242	0.01684678
129	0xbcdb2acb	-0.026753804
130	0xbd1daf01	-0.038496975
131	0xbde19e94	-0.110165745
132	0xbdb8953d	-0.0901284
133	0xbe5b9156	-0.2144216
134	0xbea198e0	-0.31561947
135	0xbe2cb391	-0.16865374
136	0xbd3f4fff	-0.04670715
137	0xbdc9bbbe	-0.09850262
138	0xbe22136b	-0.1582772
139	0xbe286a96	-0.1644691
140	0xbe5fbe54	-0.21849948
141	0xbe7055cc	-0.23470229
142	0xbe9da6ba	-0.30791265
143	0xbea3ab30	-0.31966543
144	0xbabadd09	-0.0014256547
145	0xbd6da9cb	-0.058023255
146	0xbe27b8ad	-0.16379042
147	0xbdf0727d	-0.11740587
148	0xbd8ccdc5	-0.06875185
149	0xbe445d14	-0.19176131
150	0xbe7e46ec	-0.24831742
151	0xbe8aae12	-0.2708593
152	0x3c98143a	0.018564332
153	0xbc9f8106	-0.019470703
154	0xbe420984	-0.18948942
155	0xbe260e03	-0.16216283
156	0xbdae0848	-0.08497673
157	0xbe50c69e	-0.20388266
158	0xbe0beb76	-0.1366404
159	0xbe3318ed	-0.17489977
160	0xbd361561	-0.044453982
161	0xbc585cfd	-0.013205764
162	0xbe453b45	-0.19260891
163	0xbe4f086f	-0.20218061
164	0xbe33b6d3	-0.1755021
165	0xbe56aa71	-0.20963456
166	0xbe3d054e	-0.18459055
167	0xbdf19600	-0.11796188
168	0xbd201f0a	-0.0390921
169	0xbc4f582b	-0.012655298
170	0xbd6fea17	-0.058572855
171	0xbe4b6689	-0.19863333
172	0xbe842b92	-0.25814492
173	0xbd9a8281	-0.07544423
174	0xbd91ce73	-0.07119455
175	0xbe0a7140	-0.13519764
176	0xbd858fd8	-0.06521577
177	0x3d715f2b	0.05892865
178	0x3d7b65a2	0.06137622
179	0xbd86ffeb	-0.06591781
180	0xbd8bc902	-0.068254486
181	0xbd8d75c9	-0.06907231
182	0xbe1780c4	-0.14795214
183	0xbe70187c	-0.2344684
184	0xbabeea96	-0.0014565762
185	0xbdbd1fe9	-0.09234602
186	0xbc8d7e68	-0.01727219
187	0x3b24920f	0.0025111472
188	0x3d4e0ba2	0.050304063
189	0xbd97eb2c	-0.07417902
190	0xbe40dc5a	-0.18834057
191	0xbd814356	-0.063116714
192	0x3c92eb31	0.017934414
193	0x3be95b13	0.0071214526
194	0xbd89ec27	-0.067344956
195	0xbcf05fea	-0.02934261
196	0x3d40db92	0.0470844
197	0x3d1f3762	0.038871177
198	0x3d818731	0.06324614
199	0xbde7e20c	-0.11322412
200	0x3cfd53bc	0.030923717
201	0xbd85c158	-0.06531018
202	0x3db077e7	0.086166196
203	0xbcd3cd04	-0.025854595
204	0xbddc5306	-0.10758023
205	0xbe2ffb91	-0.17185809
206	0x3d52341e	0.051319234
207	0x3d044f6b	0.0323023
208	0xbc609d50	-0.013709381
209	0xbdb2f2e9	-0.08737738
210	0x3d98d100	0.074617386
211	0xbe0fb866	-0.14035186
212	0x3dccaba6	0.09993677
213	0xbd6107aa	-0.05493895
214	0xbdf87ab9	-0.121327825
215	0x3b830922	0.0039988915
216	0x3e07692e	0.13223717
217	0xbd915578	-0.0709638
218	0xbb03c333	-0.0020105361
219	0x3e5488fb	0.20755379
220	0x3e315e31	0.17321087
221	0x3e2aa449	0.16664232
222	0x3df92a86	0.12166314
223	0xbcce4a3a	-0.025181878
224	0xba8b19f8	-0.0010612598
225	0xbcc4baf9	-0.024014937
226	0xbe2e1e84	-0.17003828
227	0xbe4dc9f6	-0.20096573
228	0x3e1de769	0.15420307
229	0x3dd9de06	0.10638051
230	0x3e401270	0.18757033
231	0xbe42f13a	-0.19037333
232	0xbe0435b4	-0.12911111
233	0x3d4295ec	0.047506258
234	0x3e4863d5	0.19569333
235	0x3e0ad496	0.13557658
236	0x3e880cfe	0.26572412
237	0x3e415c0c	0.1888277
238	0x3e2ca5bf	0.16860102
239	0x3e5310f4	0.20611936
240	0x3c68df0b	0.014213334
241	0x3d92541a	0.07144947
242	0x3e3c514d	0.18390389
243	0x3e61735c	0.22016662
244	0x3e146926	0.14493236
245	0x3e74d96f	0.2391107
246	0x3ec6bc3a	0.3881548
247	0x3e194124	0.14966255
248	0xbd3502b7	-0.044192042
249	0xbde8562f	-0.11344563
250	0xbdeba4fb	-0.11506077
251	0xbe11eeff	-0.14251326
252	0x3e005b3f	0.12534808
253	0x3e3daafb	0.18522255
254	0x3e3fa414	0.18714935
255	0xbe3bf719	-0.18355979

network_body.observation_encoder.processors.0.conv_layers.0.bias f4 [16]
0	0xbb516965	-0.003195369
1	0x3c947c0e	0.01812556
2	0xba9e5d40	-0.0012082234
3	0x3cea10f5	0.028572539
4	0x3cb9b5e9	0.02266975
5	0xbbe992f3	-0.0071281134
6	0xbb170f1c	-0.0023049777
7	0xbbf0822f	-0.007339738
8	0xbabe0b6e	-0.0014499256
9	0x3c0039ca	0.007826278
10	0x391427f4	0.00014129264
11	0xbcf43d15	-0.029814282
12	0xbbdf9025	-0.0068226033
13	0x3afd1da7	0.0019311205
14	0x3bd17658	0.0063922815
15	0xbb9fa031	-0.004871391

network_body.observation_encoder.processors.0.conv_layers.2.weight f4 [32, 16, 4, 4]
0	0x3b13318a	0.0022459948
1	0xbd4c2e9b	-0.049849134
2	0x3d938dbc	0.07204768
3	0xbc7bc085	-0.015365724
4	0xbd9cb8fa	-0.07652469
5	0xbde2014e	-0.11035405
6	0xbde7b35b	-0.11313506
7	0x3e16574a	0.14681736
8	0x3ca07ea9	0.019591646
9	0x3dcbea0e	0.09956752
10	0xbdedb233	-0.116062544
11	0xbd23869a	-0.039923288
12	0x3c4c217b	0.012459154
13	0xbbfae5f5	-0.0076568075
14	0x3d0a5ff1	0.033782903
15	0x3c32d777	0.010915629
16	0xbdabc551	-0.083872445
17	0xbe0be27b	-0.13660614
18	0xbe618378	-0.22022808
19	0xbdd61acb	-0.10454329
20	0xbc93d2db	-0.01804488
21	0xbdf154ec	-0.11783776
22	0xbdee5ef6	-0.11639206
23	0xbe2a2176	-0.16614327
24	0xbcf921ef	-0.030411689
25	0xbbfdf5fc	-0.007750271
26	0xbd5e73ca	-0.054309644
27	0xbe7e93c5	-0.24861057
28	0x3c89c6d3	0.01681844
29	0x3dcf2dcf	0.10116159
30	0xbdf11217	-0.117710285
31	0xbe2bcd39	-0.16777505
32	0xbc75974f	-0.014989688
33	0xbd5e355f	-0.054250117
34	0xbe27024e	-0.16309473
35	0xbd6ec4f4	-0.058293298
36	0x3d09d991	0.033654753
37	0x3dfd0ab4	0.12355557
38	0x3d86e060	0.06585765
39	0xbdd79d1d	-0.10528014
40	0x3d7a5336	0.061114512
41	0x3c79547e	0.015217898
42	0xbdd93eef	-0.10607707
43	0xbd96d156	-0.073641464
44	0x3de4efa2	0.11178519
45	0x3c70f4dc	0.0147068165
46	0x3c9557f2	0.018230412
47	0xbd1643a4	-0.0366856
48	0x3d30d43c	0.043171152
49	0x3e2cb609	0.16866316
50	0xbddb8d23	-0.10720279
51	0x3d5df6de	0.05419051
52	0x3c52286c	0.01282702
53	0x3e20a424	0.15687615
54	0xbcd1e8fd	-0.025623793
55	0xbdea6942	-0.114458576
56	0x3ceaa474	0.02864287
57	0x3dad00a8	0.08447391
58	0xbcc0c1f6	-0.023529988
59	0xbd48b977	-0.049004998
60	0x3dcb0c45	0.099144496
61	0x3e0e0e6e	0.13872692
62	0xbe221cdb	-0.1583132
63	0x3c2ecbc9	0.010668703
64	0xbc52cfe9	-0.012866952
65	0xbd2cfd35	-0.042233665
66	0xbe4bb92e	-0.19894859
67	0x3d7948d6	0.060860477
68	0x3d05d04a	0.032669343
69	0xbb0de585	-0.0021651697
70	0xbe2f4d74	-0.1711939
71	0xbe7716d0	-0.24129796
72	0x3dcb1171	0.09915436
73	0x3e0604fd	0.1308784
74	0xbddb3787	-0.107039504
75	0xbd833479	-0.06406493
76	0xbc90bca7	-0.017668081
77	0x3dd33c25	0.10314206
78	0xbca1cfc0	-0.019752383
79	0xbdb8854a	-0.09009798
80	0x3de01e8f	0.109433286
81	0x3e008f7b	0.12554733
82	0xbde1e224	-0.11029461
83	0xbd9a854a	-0.07544954
84	0x39156172	0.00014246049
85	0x3d1defcf	0.038558777
86	0xbb5a0f72	-0.0033273366
87	0xbdaf923c	-0.08572814
88	0x3d455b5f	0.04818284
89	0x3d0a905f	0.03382909
90	0xbd1d0174	-0.038331464
91	0xbd688107	-0.056763675
92	0xbcd84250	-0.026398808
93	0x3e0fb8b5	0.14035304
94	0x3cc2fb44	0.023801453
95	0xbded0b9f	-0.11574482
96	0xbd681a3c	-0.056665644
97	0x3d1c5f3e	0.038176768
98	0x3cc6e44a	0.024278779
99	0x3d4df1d1	0.050279442
100	0xbbf72d33	-0.00754323
101	0x3d8a8110	0.06762898
102	0xbdd3a500	-0.103342056
103	0xbcfb4c7c	-0.030676119
104	0xbd0a6021	-0.033783082
105	0xbcf719df	-0.030163703
106	0x3d79cdc8	0.060987264
107	0xbe3b5771	-0.18295075
108	0xbd34cb00	-0.04413891
109	0x3da493e6	0.08036022
110	0xbd2818d8	-0.041039318
111	0xbcd32a88	-0.025777116
112	0x3e059ae3	0.13047366
113	0x3ca5f729	0.020259457
114	0xbd3d553e	-0.04622387
115	0xbcda7ffc	-0.026672356
116	0xbd8dc277	-0.06921857
117	0xbb8272b1	-0.0039809574
118	0xbddd4438	-0.10804027
119	0xbe460d3c	-0.19340986
120	0xbc401f27	-0.011726177
121	0x3e0062fd	0.12537761
122	0xbe3adbd0	-0.18247914
123	0xbcff285d	-0.031147176
124	0xbc2fc967	-0.01072917
125	0x3cdc6555	0.026903788
126	0xbd5ad588	-0.053426296
127	0xbdbd8014	-0.092529446
128	0xbdcdbfc4	-0.10046342
129	0xbb355e09	-0.0027674458
130	0xbe4829d6	-0.19547209
131	0xbcce603d	-0.025192374
132	0xbd27164b	-0.040792745
133	0x3d064114	0.032776907
134	0xbe1305ca	-0.14357677
135	0xbe1a9e4f	-0.15099452
136	0xbdc9a97e	-0.09846781
137	0xbc793b5d	-0.015211907
138	0x3c60244c	0.013680529
139	0xbcd2d9dd	-0.025738651
140	0xbdc19c1e	-0.09453605
141	0x3d7c2beb	0.06156532
142	0xbd26d148	-0.04072693
143	0x3cc838f7	0.024441225
144	0x3b5f9a54	0.0034119086
145	0x3c48e0e7	0.012260652
146	0xbd43b998	-0.047784418
147	0x3d02b4b0	0.0319106
148	0xbc1ef456	-0.009701809
149	0x3bd4f587	0.0064989957
150	0xbbf3b18c	-0.0074369367
151	0xbe32198b	-0.17392556
152	0xbcc3dbb2	-0.02390847
153	0xbbde8513	-0.006790766
154	0xbd2563a2	-0.04037822
155	0x3ddc444a	0.107552126
156	0x3d8e31af	0.0694307
157	0xbc59b0e8	-0.013286807
158	0x3d26c8be	0.040718786
159	0xbb006ce4	-0.0019596154
160	0x3cc307d2	0.02380744
161	0xbcb3642a	-0.021898348
162	0xbca38601	-0.019961359
163	0xbc38428c	-0.011246335
164	0x3da55f9c	0.08074877
165	0xbcc5f761	-0.024165811
166	0xbde0db2f	-0.10979306
167	0xbd850916	-0.06495874
168	0x3db23044	0.08700612
169	0x3cf62391	0.030046256
170	0xbca5bedc	-0.02023261
171	0xbdca07d9	-0.09864778
172	0x3b311aa6	0.002702394
173	0xbb87175f	-0.004122659
174	0x3cc0416a	0.023468692
175	0xbcf6822a	-0.030091364
176	0x3d614d6f	0.055005487
177	0x3c37013d	0.011169729
178	0x3cd972e2	0.026544038
179	0x3c788777	0.015169016
180	0xbb31984a	-0.0027098828
181	0x3d871a97	0.065968685
182	0xbe4d978a	-0.20077339
183	0x3dff8e4f	0.12478315
184	0xba8ab16a	-0.0010581438
185	0xbd92c921	-0.071672685
186	0xbda90589	-0.08253009
187	0xbd02e4c6	-0.031956457
188	0x3c9e2faa	0.019309837
189	0x3d50ad8c	0.050946757
190	0xbd5931af	-0.053025898
191	0xbd118d4b	-0.035535138
192	0x3cb4ae78	0.02205585
193	0x3d7cdb03	0.061732303
194	0xbdde0418	-0.108406246
195	0xbde17398	-0.11008376
196	0x3d8ecfe8	0.06973249
197	0xbd021eed	-0.031767774
198	0xbe239955	-0.1597646
199	0x3bf9a07e	0.007618009
200	0x3cd92b0a	0.02650978
201	0x3c44ce80	0.012012124
202	0xbcf00c8c	-0.029302858
203	0xbdf94554	-0.121714264
204	0x3d0f16e9	0.03493396
205	0x3d7b0b9d	0.061290372
206	0xbd53fa4a	-0.051752366
207	0xbd32123c	-0.04347442
208	0xbcbb7e2c	-0.022887312
209	0x39dfc147	0.00042677877
210	0xbd30e686	-0.043188594
211	0xbde0d163	-0.10977437
212	0x3d5d0368	0.053958327
213	0xbd07d846	-0.03316524
214	0xbdd319a8	-0.10307628
215	0xbdbad1b3	-0.09122028
216	0xbd1b95e3	-0.03798474
217	0x3d9ec57a	0.077525094
218	0xbd4d123e	-0.050066225
219	0xbe094c12	-0.13407925
220	0x3d7ce53b	0.06174205
221	0x3c691d1c	0.014228132
222	0xbdcc447f	-0.09974002
223	0xbe34d802	-0.17660525
224	0xbd76a240	-0.060213327
225	0x3dfd6cd8	0.12374276
226	0xbdcf63f8	-0.101264894
227	0x3c03f9ae	0.008055134
228	0x3d657488	0.056019336
229	0x3d64021a	0.055666067
230	0xbe57a826	-0.21060237
231	0x3bdbc40f	0.0067067216
232	0xb9b7dc4d	-0.00035068617
233	0xbc016c9d	-0.007899431
234	0xbd57e5af	-0.052709278
235	0xbd81e8c8	-0.063432276
236	0xbd3a70ae	-0.045517616
237	0x3d338b02	0.04383374
238	0xbdc36579	-0.09540839
239	0xbdd50090	-0.10400498
240	0xbda281eb	-0.07934936
241	0xbc5e0eb5	-0.013553311
242	0xbc0f29a1	-0.008737952
243	0x3d98ea29	0.074665375
244	0xbd7f0863	-0.062263858
245	0xbb3d83a2	-0.002891757
246	0x3d639623	0.055563103
247	0x3d9e1dd5	0.07720534
248	0xbcb10699	-0.021609591
249	0x3b037f63	0.0020064942
250	0x3de0ad35	0.109705366
251	0x3e030ad9	0.12797107
252	0x3c67f639	0.014157825
253	0x3c5311ae	0.012882633
254	0x3d2f8422	0.04285062
255	0x3d81aef4	0.06332198

network_body.observation_encoder.processors.0.conv_layers.2.bias f4 [32]
0	0xbdda9699	-0.106732555
1	0xbd3b988e	-0.045799784
2	0x3cb2069e	0.021731671
3	0xbd538a56	-0.0516456
4	0x3c366752	0.011133032
5	0xbb5474a5	-0.0032418158
6	0x3d46fb3a	0.048579432
7	0x3d4e88d7	0.05042347
8	0x3d037847	0.032097127
9	0x3d6579b5	0.056024272
10	0xbd68aeea	-0.056807436
11	0xbc3c3b24	-0.01148871
12	0x3c98d468	0.01865597
13	0x3b5428c1	0.0032372924
14	0x3d192872	0.037392087
15	0xbdc5b79a	-0.0965416
16	0xbca772e2	-0.020440523
17	0xbdf17d16	-0.117914364
18	0x3cea16c3	0.028575307
19	0xbc1f073b	-0.009706314
20	0x3d899463	0.06717756
21	0x3d4ea7c8	0.050452977
22	0xbd774708	-0.060370475
23	0xbab9e62d	-0.0014182978
24	0x3d1c16b9	0.038107608
25	0x3cb95d1e	0.02262741
26	0xbcc815b7	-0.024424417
27	0x3d112391	0.03543431
28	0x3d363ba3	0.044490468
29	0x3cddaea1	0.027060809
30	0xbdb6662f	-0.08906209
31	0x3d51fa49	0.05126408

network_body.observation_encoder.processors.0.dense.0.weight f4 [256, 32]
0	0xbe88ffab	-0.2675756
1	0xbe2c3ca8	-0.16820014
2	0x3e8834fd	0.26602927
3	0xbf3cd1d5	-0.7375768
4	0x3b9499e3	0.0045349463
5	0x3e6ce0cd	0.2313263
6	0x3e1f3abf	0.15549754
7	0x3e57c7ac	0.21072263
8	0xbe2485a6	-0.16066608
9	0xbe4d1b1d	-0.20029874
10	0xbdaf78af	-0.085679404
11	0x3e8c2879	0.27374628
12	0xbe634eb2	-0.22197989
13	0x3e3330e1	0.17499115
14	0x3ec53aa7	0.3852131
15	0xbdb686df	-0.08912443
16	0xbeddcac6	-0.43318766
17	0xbe70c147	-0.2351123
18	0x3eb9a621	0.3625956
19	0xbdce43f5	-0.100715555
20	0xbe3d6efd	-0.1849937
21	0xbde89887	-0.11357217
22	0xbebce151	-0.36890653
23	0x3e38d3f3	0.18049602
24	0xbeb04de4	-0.34434426
25	0xbe5a451e	-0.21315429
26	0x3d22fd1d	0.03979217
27	0xbd75699c	-0.05991517
28	0x3ea6e204	0.3259431
29	0x3e39f944	0.18161494
30	0xbe669073	-0.2251604
31	0x3d9de8e1	0.07710434
32	0xbf053725	-0.5203727
33	0xbe9f32a3	-0.3109332
34	0xbe4a8f0e	-0.19781134
35	0xbe899e6f	-0.26878688
36	0x3dbd8fe3	0.0925596
37	0x3f127855	0.5721486
38	0xbe624640	-0.22097111
39	0x3e469205	0.1939164
40	0xbe8c6898	-0.2742355
41	0x3e7bb64a	0.24581257
42	0x3e4a6bb6	0.19767651
43	0xbba4e431	-0.0050320853
44	0xbe174caf	-0.14775346
45	0xbe5ca4e5	-0.21547277
46	0xbe7675ed	-0.24068423
47	0xbe624450	-0.22096372
48	0xbe3ba320	-0.18323946
49	0x3ec716a4	0.3888446
50	0xbe31522d	-0.17316504
51	0xbe85b80c	-0.2611698
52	0xbea66377	-0.3249776
53	0x3d92f021	0.07174707
54	0x3d9c25ef	0.07624423
55	0x3ea2398d	0.31684533
56	0xbf31ffd6	-0.69531
57	0xbe972fb9	-0.29528597
58	0x3e40241b	0.18763773
59	0x3e15f572	0.14644411
60	0x3f0cfceb	0.5507342
61	0xbecac287	-0.39601538
62	0xbd42998b	-0.04750971
63	0x3c914bdd	0.01773637
64	0x3dd2bd9d	0.10290072
65	0xbe572a97	-0.2101234
66	0xbf01c496	-0.5069059
67	0xbe760151	-0.2402394
68	0xbd0c5d60	-0.034268737
69	0x3f0349a7	0.5128426
70	0x3d61439b	0.054996114
71	0xbf2df308	-0.6794896
72	0xbdf8d1de	-0.12149404
73	0xbed988f5	-0.42487302
74	0xbe35f754	-0.1777013
75	0xbd409c3e	-0.047024004
76	0xbe5b2011	-0.21398951
77	0x3ea87a6d	0.32905903
78	0x3dd22ae9	0.10262091
79	0xbeb15038	-0.34631515
80	0x3d8a7755	0.06761042
81	0x3e3ed71d	0.18636747
82	0xbf146390	-0.5796442
83	0x3de315f1	0.11088169
84	0xbd69d78b	-0.057090323
85	0x3eae1d0d	0.3400654
86	0x3e8f2e73	0.27965125
87	0xbd02c01e	-0.0319215
88	0x3ed09ad7	0.40743133
89	0x3e4855ee	0.1956403
90	0xbe81885f	-0.25299355
91	0x3e34bd9f	0.1765046
92	0xbf184f81	-0.59496313
93	0xbe2b1591	-0.16707446
94	0xbdf7d191	-0.121005185
95	0xbd1160ff	-0.035492893
96	0xbedd3390	-0.43203402
97	0x3e80f5aa	0.25187427
98	0x3d316eef	0.043318685
99	0xbd3a1b4a	-0.04543618
100	0xbf16f7e4	-0.58972
101	0xbeabaf69	-0.33532265
102	0x3d2671b7	0.04063579
103	0xbd4e64d2	-0.05038912
104	0x3e3e3d2b	0.18578021
105	0x3df0c29b	0.11755868
106	0x3ed3cff2	0.41369587
107	0xbe5054b2	-0.20344809
108	0xbf04c4f4	-0.51863027
109	0xbe8c2ade	-0.27376455
110	0xbd593b4d	-0.05303507
111	0xbed06b6d	-0.4070696
112	0x3e4cb9d2	0.1999276
113	0xbe8565c2	-0.26054198
114	0x3ec49fcf	0.38403174
115	0x3df1f25e	0.11813806
116	0x3d675061	0.05647314
117	0x3e80fd70	0.25193357
118	0x3de6cb28	0.11269218
119	0xbeb453e3	-0.3522025
120	0x3e4388f4	0.19095212
121	0xbad77b85	-0.001644001
122	0xbc6b87a4	-0.014375601
123	0xbe11003d	-0.14160247
124	0xbe714ae9	-0.23563732
125	0xbd91323b	-0.07089659
126	0xbd0a905c	-0.033829078
127	0xbee9239e	-0.45534986
128	0x3ed65ebb	0.4186915
129	0x3d5c48bb	0.0537803
130	0x3e7081b4	0.23486978
131	0xbe5a6b76	-0.21330056
132	0x3d817da6	0.06322794
133	0x3e41aaba	0.18912783
134	0xbe078d6b	-0.1323754
135	0xbe5379ab	-0.20651881
136	0x3ee7cb61	0.45272353
137	0x3e846aa0	0.25862598
138	0x3e1df317	0.15424763
139	0x3f1337c4	0.57506967
140	0xbe76e98e	-0.24112532
141	0x3e89beef	0.26903483
142	0xbb611203	-0.0034343011
143	0xbea1da68	-0.31611943
144	0x3e41e95f	0.1893668
145	0x3e968c27	0.29403803
146	0xbcab77fe	-0.02093124
147	0x3ec36974	0.38166392
148	0xbe7455eb	-0.238609
149	0xbdb34eb4	-0.08755246
150	0x3e6f2425	0.23353632
151	0x3d8df047	0.06930595
152	0x3d58246c	0.05276911
153	0xbdaf759d	-0.08567355
154	0x3df521c8	0.11969334
155	0x3ee4d66a	0.44694835
156	0xbf3876d3	-0.7205631
157	0xbd39b2aa	-0.045336403
158	0xbf192057	-0.5981497
159	0xbdc28ec2	-0.09499885
160	0x3e6db366	0.23212966
161	0xbeb182e6	-0.3467018
162	0x3e92bbf2	0.28659016
163	0x3e8b28ce	0.2717957
164	0x3ddde08d	0.10833845
165	0xbcee4380	-0.02908492
166	0xbef98ba0	-0.48739338
167	0xbeb874b9	-0.36026552
168	0x3eb0972a	0.3449033
169	0x3dc00c16	0.09377305
170	0x3e991ee4	0.2990638
171	0x3eee6ff4	0.46569788
172	0xbeb940a6	-0.36182135
173	0x3e2ef981	0.17087366
174	0x3c013bdd	0.007887808
175	0xbe0f67de	-0.14004466
176	0x3d310ddc	0.043226108
177	0x3d8d1315	0.06888405
178	0x3ea3c1a5	0.31983677
179	0x3eb6d652	0.35710388
180	0xbe577ec2	-0.21044448
181	0xbe229a21	-0.15879108
182	0xbebece3a	-0.37266713
183	0x3ed65fdf	0.4187002
184	0xbe91c55a	-0.2847088
185	0x3e8486e6	0.2588417
186	0x3ea8163d	0.32829466
187	0x3d5f1177	0.054460015
188	0xbe6f1a2e	-0.2334983
189	0xbded2947	-0.11580139
190	0x3c7e20bb	0.015510733
191	0xbe461b05	-0.19346245
192	0xbe531b4b	-0.2061588
193	0xbe1b3fd2	-0.15161064
194	0xbea961de	-0.3308248
195	0x3e20c816	0.15701327
196	0xbd899270	-0.06717384
197	0x3e86c0f4	0.26319087
198	0xbda42d2e	-0.0801643
199	0xbddfeda2	-0.10933997
200	0x3e13e9a1	0.14444591
201	0x3db9d05d	0.09072945
202	0xbee61e5a	-0.4494503
203	0x3c9193d2	0.017770682
204	0x3ea0c2c6	0.313986
205	0x3f06ea99	0.5270172
206	0xbe390ff3	-0.1807249
207	0xbf414147	-0.7549023
208	0xbe376c57	-0.17912422
209	0x3dacc236	0.0843548
210	0x3dbc32ca	0.09189375
211	0x3df089ad	0.117450096
212	0xbdca6249	-0.09882028
213	0xbebe8608	-0.37211633
214	0xbe5054cd	-0.20344849
215	0x3de62296	0.112370655
216	0x3e00bb98	0.12571561
217	0x3c394bc8	0.011309572
218	0x3e3728e2	0.1788669
219	0x3eb6ea61	0.35725692
220	0x3e797d31	0.24364163
221	0x3ee8ae8d	0.45445672
222	0x3e098a72	0.13431719
223	0xbf0ba958	-0.54555273
224	0x3dfd7864	0.12376478
225	0x3f1d76cb	0.6150939
226	0xbe69d9b4	-0.22836953
227	0xbc14dd6e	-0.009085996
228	0xbe449d2d	-0.19200583
229	0x3e8a2a05	0.26985183
230	0xbea7c9b2	-0.3277107
231	0x3e3fa2ba	0.18714419
232	0xbcd576e9	-0.026057677
233	0xbeebcaa5	-0.46053043
234	0x3da07d4d	0.07836399
235	0x3cee4165	0.029083917
236	0xbec29bba	-0.38009435
237	0xbdebdd1c	-0.11516783
238	0x3b63903d	0.0034723424
239	0x3c0fc8a6	0.008775866
240	0x3bfa77ce	0.0076436764
241	0xbd2895f2	-0.041158624
242	0x3e80c5ba	0.25150853
243	0xbf22f3eb	-0.6365344
244	0xbe0a2d8f	-0.13493942
245	0xbe7c3caf	-0.24632524
246	0x3eb88574	0.36039317
247	0x3e31087a	0.1728839
248	0xbd75c017	-0.059997644
249	0xbe28a3ac	-0.16468686
250	0x3ecbf700	0.39836884
251	0xbe3b52d2	-0.18293312
252	0xbd31653a	-0.043309428
253	0xbe2b255a	-0.16713467
254	0xbdf4d11b	-0.11953946
255	0xbe3dc85c	-0.18533462

network_body.observation_encoder.processors.0.dense.0.bias f4 [256]
0	0xbc579df3	-0.013160217
1	0x3c676c43	0.014124933
2	0x3d97d547	0.07413726
3	0x3cf1b31e	0.029504355
4	0x3c850048	0.016235486
5	0x3c4e9b68	0.012610294
6	0x3c833dfe	0.016020771
7	0x3d012b86	0.031535648
8	0x3c852a98	0.016255662
9	0xbdfa0fdd	-0.12210057
10	0x3d6c06ae	0.057623558
11	0x3be466ec	0.006970277
12	0x3c4c20dc	0.012459006
13	0xbc9309bf	-0.017948983
14	0xbb6a6afd	-0.0035769336
15	0x3c2a5161	0.010395379
16	0x3cdacf16	0.026710074
17	0xbd08e6e0	-0.033423305
18	0x3d4546dc	0.04816328
19	0x3d4b7b3e	0.04967808
20	0xbce3df20	-0.027816355
21	0x3c27f679	0.010251635
22	0xbccfd9d5	-0.025372425
23	0xbd16f347	-0.0368531
24	0x3c4d66d0	0.012536719
25	0xbcdeadfa	-0.027182568
26	0x3d4de142	0.05026365
27	0xbb9da462	-0.0048108557
28	0xbc29723a	-0.010342175
29	0xbd8db3b8	-0.06919044
30	0x3d0d8467	0.034550097
31	0xbc72e33c	-0.014824685
32	0x3c373808	0.0111827925
33	0xbce33153	-0.02773348
34	0xbcc284a0	-0.023744881
35	0xbdea0f68	-0.1142872
36	0x3d4a7039	0.04942343
37	0xbdcdd126	-0.100496575
38	0xbe020379	-0.12696637
39	0xbc1183d4	-0.008881528
40	0xbb4cdab1	-0.003125828
41	0xbd28123d	-0.04103302
42	0xbe103a6c	-0.14084786
43	0x3d196aa7	0.037455227
44	0x3cca1120	0.024666369
45	0x3cd63f73	0.026153302
46	0xbc59cc86	-0.013293391
47	0xbd445593	-0.047933172
48	0x3c60ddce	0.013724757
49	0xbd14f9f1	-0.036371175
50	0x3d77644a	0.060398377
51	0x3d058338	0.032595843
52	0x3a83b864	0.001004946
53	0xbdd34c09	-0.10317237
54	0x3c176d79	0.009242409
55	0x3d4dbc9b	0.050228696
56	0xbd616742	-0.055030115
57	0xbdc73d4c	-0.09728488
58	0xbced7751	-0.028987559
59	0xbb9745c3	-0.0046164705
60	0xbd57e4b2	-0.052708335
61	0xbc58af83	-0.013225439
62	0x3cfa7dd4	0.030577578
63	0x3cdddce7	0.027082874
64	0xbc3c7c9a	-0.011504317
65	0xbd28865b	-0.041143756
66	0x3a610119	0.00085832324
67	0xbc7da103	-0.015480283
68	0xbd3e20cd	-0.046418
69	0xbd00e3b6	-0.031467162
70	0xbd7aa5db	-0.06119333
71	0xbb4df388	-0.0031425674
72	0x3d36afc6	0.044601224
73	0xbd1c3d1a	-0.03814421
74	0x3c887ccc	0.01666107
75	0x3c12e698	0.008966111
76	0x3d22245a	0.03958545
77	0x3d41f015	0.0473481
78	0xbc5de69c	-0.013543751
79	0xbe04a567	-0.12953721
80	0xbc5358fc	-0.0128996335
81	0xbd1c2747	-0.038123395
82	0xbd1cbbeb	-0.03826515
83	0xbd2fbc2c	-0.042904064
84	0xbcf20d85	-0.029547462
85	0xbcf79bd4	-0.030225672
86	0xbd7fae03	-0.06242181
87	0xbd180017	-0.03710946
88	0x3c81a6c0	0.015826583
89	0xbd2b8ed4	-0.04188426
90	0xbc29aa67	-0.0103555685
91	0xbd9cc8d0	-0.076554894
92	0xbc53c2f9	-0.012924903
93	0x3c0fdef8	0.008781187
94	0x3c3734eb	0.01118205
95	0x3db4de1c	0.088314265
96	0xbb990743	-0.004670055
97	0xbd608301	-0.054812435
98	0xbd1a3771	-0.03765053
99	0x3d2c8481	0.042118553
100	0xbce1c74b	-0.02756085
101	0x3cf5e698	0.030017182
102	0x3c07b33a	0.008282477
103	0xbc8b781d	-0.017025048
104	0x3d2114da	0.039326526
105	0xbba23aa4	-0.004950838
106	0xbde5e3b9	-0.11225075
107	0x3d325428	0.04353729
108	0x3b4ca4ca	0.0031226152
109	0x3ce6e0e0	0.0281834
110	0x3ce891af	0.02838978
111	0x3d454f07	0.04817107
112	0x3c10138c	0.008793723
113	0xbc223f4b	-0.0099027855
114	0xbd73ad38	-0.059491366
115	0xbdd2408e	-0.10266219
116	0xbd4a23b7	-0.049350467
117	0xbd6db317	-0.05803212
118	0xbc867fb0	-0.016418308
119	0x3d4c59fe	0.04989051
120	0x3d1a9e6e	0.037748747
121	0x3cb0189f	0.021496115
122	0xbc032b5b	-0.008005942
123	0x3cba7950	0.022762924
124	0x3be1e015	0.0068931677
125	0xbd474fdb	-0.04866014
126	0xbc5d79cc	-0.013517808
127	0xbd7e2a2b	-0.062051933
128	0xbd7f71b9	-0.062364314
129	0x3daeba61	0.08531643
130	0x3d5d0497	0.053959455
131	0xbce47505	-0.02788783
132	0x3cda4e19	0.026648568
133	0xbd078b80	-0.033092022
134	0x3c9efaaa	0.019406635
135	0x3c857628	0.016291693
136	0xbd480fa5	-0.048843045
137	0xbd2cb3da	-0.042163707
138	0xbd09e23d	-0.033663023
139	0x3d130dc6	0.035901807
140	0x3d334916	0.043770872
141	0xbb2e0675	-0.0026554142
142	0xbc8489fe	-0.016179081
143	0xbc5aaae3	-0.013346407
144	0xbdb895ad	-0.090129234
145	0x3c0b3890	0.008497372
146	0xbbc991ae	-0.0061513996
147	0x3b7691dd	0.0037623562
148	0xbd19e93b	-0.03757594
149	0xbca13ff4	-0.019683816
150	0x3bebac28	0.0071921535
151	0xbd685593	-0.056722235
152	0xbdea1468	-0.114296734
153	0xbd353c69	-0.044247065
154	0xbc70d424	-0.014699016
155	0x3c577312	0.0131499935
156	0x3cf7dccd	0.030256653
157	0xbbea7b59	-0.0071558175
158	0x3c909797	0.017650409
159	0xbb3427b4	-0.0027489485
160	0xbd0d50b8	-0.034500808
161	0x3ccbad91	0.024863036
162	0xbd7de2ff	-0.06198406
163	0x3c9fc8f3	0.019505
164	0xbcf8e960	-0.03038472
165	0x3d897bf1	0.06713093
166	0xbc57352c	-0.013135236
167	0xbcfb2902	-0.030659202
168	0xbd294211	-0.04132277
169	0xbce57c47	-0.028013362
170	0xbbb46676	-0.0055053784
171	0x3b1f8514	0.0024340795
172	0xbdd4a4f3	-0.10383024
173	0x3d2f699f	0.042825337
174	0xbb5f94b6	-0.0034115738
175	0xbd0249fc	-0.03180884
176	0xbc9ead4c	-0.019369744
177	0x3c8db365	0.017297456
178	0x3d8605d3	0.0654408
179	0x3b655686	0.00349942
180	0xbd0a7ab3	-0.03380842
181	0xbcab376c	-0.02090045
182	0xbce27f76	-0.027648669
183	0x3cec5278	0.028847918
184	0x3b93f2f2	0.0045150453
185	0x3cb50757	0.022098226
186	0xbdfbc8a4	-0.122941285
187	0x3c258e53	0.0101047335
188	0xbc12844c	-0.008942675
189	0xbb1d26ba	-0.0023979382
190	0x3d22371a	0.03960333
191	0xbd1e01fc	-0.03857611
192	0x3c51735f	0.012783854
193	0xbd48e8ad	-0.049050022
194	0x3ca0dea6	0.019637417
195	0xbc322322	-0.010872634
196	0x3d92e1e1	0.07171989
197	0x3d8571e9	0.06515867
198	0xbcd30946	-0.025761258
199	0x3ca92131	0.02064571
200	0xbd68e0f9	-0.056855176
201	0x3d138adf	0.03602111
202	0x3bec46ac	0.007210573
203	0x3cd7af9a	0.02632885
204	0xbc954ae7	-0.018224193
205	0xbde3a15f	-0.111147635
206	0x3bd4ff9a	0.0065001966
207	0xbc8d1412	-0.017221484
208	0x3d14592b	0.03621785
209	0xbd2e59ef	-0.042566236
210	0x3cda5e53	0.026656305
211	0x3d59b14c	0.0531476
212	0x3d41b302	0.047289856
213	0x3cf2e26a	0.029648978
214	0xbdcb53d7	-0.099281006
215	0xbdb9b975	-0.09068576
216	0xbb47b57d	-0.0030473166
217	0x3b31af2c	0.0027112467
218	0xbb4a83e6	-0.0030901372
219	0x3c280ab1	0.010256455
220	0xbd7ff8d1	-0.06249315
221	0xbe0f8e14	-0.14019042
222	0x3d28a14d	0.041169453
223	0x3c6c6380	0.0144280195
224	0x3d9e029d	0.07715342
225	0xbd2438dc	-0.040093288
226	0xbc62dd09	-0.013846644
227	0xbdf3a9d7	-0.11897629
228	0x3d43514b	0.04768495
229	0xbcc447f4	-0.023960091
230	0x3d0e1c9e	0.03469526
231	0x3cc03478	0.023462519
232	0xbd06f3db	-0.032947402
233	0xbdb7c11b	-0.08972379
234	0xbca61857	-0.020275278
235	0xbdd19de5	-0.10235194
236	0x3d91fc44	0.07128194
237	0xbc47a58c	-0.012185466
238	0x3d3a8529	0.045537148
239	0xbc5c3e7d	-0.013442633
240	0xbc44af52	-0.01200469
241	0x3c8c11d8	0.017098352
242	0xbcb1d9f8	-0.02171038
243	0x3c7f4e27	0.015582598
244	0x3d8ec496	0.069710895
245	0x3d892361	0.06696201
246	0xbdbe2ec9	-0.09286267
247	0xbd39d286	-0.045366786
248	0xbd89a9ea	-0.06721862
249	0xbd60a0a9	-0.054840717
250	0xbdb3ba8c	-0.08775815
251	0x3bf5d196	0.007501791
252	0x3cbb0901	0.022831442
253	0x3c73a7f1	0.014871583
254	0x3d463c17	0.04839715
255	0x3d10651c	0.035252675

network_body._body_endoder.seq_layers.0.weight f4 [256, 258]
0	0xbdbdab44	-0.09261182
1	0xbccfa7c1	-0.025348546
2	0xbdf4ca33	-0.11952629
3	0xbacc4c5e	-0.0015586724
4	0xbce8c416	-0.028413814
5	0xbd08faed	-0.033442426
6	0xbcc5dd95	-0.02415351
7	0x3c7558a2	0.014974745
8	0xbbd133c5	-0.0063843452
9	0xbd1c3557	-0.038136806
10	0xbd907bbd	-0.07054851
11	0x3de443fb	0.11145779
12	0xbe006c31	-0.12541272
13	0xbe0578a5	-0.13034303
14	0xbbec7ede	-0.007217272
15	0xbdad5233	-0.08462944
16	0xbdc6d298	-0.09708136
17	0xbc20cd36	-0.009814551
18	0xbcfde68e	-0.030993726
19	0xbdc70068	-0.09716874
20	0xbe0b26f5	-0.1358908
21	0xbba1c6d1	-0.004937031
22	0x3d856890	0.06514084
23	0xbd63ed0a	-0.05564598
24	0x3d8d527e	0.069005
25	0x3d66ac96	0.056316935
26	0xbdd244ef	-0.10267054
27	0x3c851bf1	0.016248675
28	0xbe0511de	-0.12995097
29	0xbe06bdda	-0.1315836
30	0x3da5e51b	0.08100339
31	0xbc52f02e	-0.012874646
32	0x3e2a607d	0.1663837
33	0xbe1907eb	-0.14944427
34	0xbd16ccea	-0.036816515
35	0xbe0cd771	-0.1375406
36	0xbe1bfb2d	-0.15232535
37	0x3dae9207	0.08523946
38	0x3c3a5b37	0.011374286
39	0xbe0847b5	-0.13308604
40	0xbcba3af7	-0.022733195
41	0xbe6961be	-0.22791192
42	0xbc4281c6	-0.011871761
43	0xbd44aedc	-0.04801832
44	0x3d573b15	0.05254658
45	0x3c88136d	0.016610825
46	0xbdbec0ed	-0.093141414
47	0x3c9da63a	0.019244302
48	0x3d32c398	0.043643564
49	0xbd81e813	-0.06343093
50	0x3d08a0bd	0.033356417
51	0x3dd6fe3e	0.104977116
52	0x3d95945d	0.07303689
53	0xbd916b03	-0.07100489
54	0xbd9d1a3b	-0.07671019
55	0x3d26cedf	0.04072463
56	0xbdc602e2	-0.096685186
57	0x3d0fdc05	0.035121936
58	0xbe0e2838	-0.1388253
59	0xbbb07f67	-0.0053862813
60	0xbd460ba7	-0.048350956
61	0xbe1f86b3	-0.15578727
62	0xbd93e41c	-0.07221243
63	0x3e06fc17	0.13182102
64	0x3c81081a	0.015750933
65	0x3d85667c	0.06513688
66	0x3de87ef5	0.1135234
67	0x3d80d141	0.06289912
68	0xbd8ea0c7	-0.069642596
69	0xbd16b234	-0.03679104
70	0x3dfa3776	0.122176096
71	0x3e327b54	0.17429858
72	0xbd67018b	-0.056397956
73	0xbd14383f	-0.036186453
74	0x3d92cdb9	0.07168145
75	0xbd6b1f27	-0.057402756
76	0x3ccbcde2	0.024878446
77	0xbd309578	-0.043111295
78	0x3c1cda22	0.009573491
79	0xbda1d0e9	-0.079011746
80	0xbd7b7bcb	-0.061397355
81	0xbd80db86	-0.06291871
82	0xbe8c2922	-0.27375132
83	0x3e03a39c	0.12855381
84	0xbd41ccae	-0.04731434
85	0xbe156423	-0.1458898
86	0xbc037cf5	-0.008025398
87	0xbd312bcd	-0.043254662
88	0xbe5d5b84	-0.21616942
89	0xbe0091e2	-0.1255565
90	0xbddb1b70	-0.10698593
91	0x3dafcf7d	0.08584497
92	0xbc9043a6	-0.017610382
93	0x3d443df1	0.047910634
94	0x3d9205b3	0.07129993
95	0xbd99c7f1	-0.07508839
96	0x3da1895d	0.07887528
97	0x3cd4dd79	0.025984513
98	0x3d67c023	0.05657972
99	0xbdb8e6e9	-0.090284176
100	0xbd9188ca	-0.071061686
101	0xbcbe3ae8	-0.023221448
102	0x3d904027	0.07043486
103	0xbe11f30f	-0.14252876
104	0x3d838139	0.06421132
105	0xbe3b13f8	-0.18269336
106	0x3db7ef1e	0.08981155
107	0x3d384d3a	0.044995524
108	0xbcf6c020	-0.03012091
109	0xbe911a25	-0.2834026
110	0x3bd2d2f4	0.006433839
111	0xbe38bd20	-0.18040895
112	0xbdca6b97	-0.098838024
113	0x3e0e5354	0.13898975
114	0x3d824e98	0.06362647
115	0x3d227366	0.039660834
116	0xbd07a71f	-0.033118363
117	0xbdd3c54c	-0.10340366
118	0xbd8e7f5f	-0.06957888
119	0xbd561fb8	-0.052276343
120	0xbd85eb9b	-0.06539079
121	0xbc85aa19	-0.01631646
122	0xbdfe6aaa	-0.12422688
123	0xbbbd2ff5	-0.005773539
124	0xbcde9fa3	-0.02717573
125	0xbd5ace02	-0.05341912
126	0x3cb524e7	0.022112323
127	0xbd2affc3	-0.04174782
128	0xbcb87688	-0.022517458
129	0xbdacbbc7	-0.08434253
130	0x3db159ff	0.086597435
131	0xbd285fe5	-0.041107077
132	0x3bc31944	0.0059539396
133	0x3e028102	0.12744525
134	0x3e2d4d61	0.16924049
135	0xbdfa5c50	-0.122246385
136	0xbc861d2c	-0.016371332
137	0xbc936347	-0.017991675
138	0x3d5e8dff	0.054334637
139	0xbe8644c2	-0.26224333
140	0xbe174687	-0.14772998
141	0x3cf62382	0.030046228
142	0xbda53e8f	-0.08068573
143	0xbe093465	-0.13398893
144	0xbb8ce552	-0.004299798
145	0xbabed805	-0.0014560228
146	0xbd5f5d92	-0.054532595
147	0xbe1cd899	-0.15317
148	0xbdfd5f06	-0.1237164
149	0xbdae6340	-0.08515024
150	0xbd80d321	-0.0629027
151	0x3c824717	0.015903039
152	0x3d331fb0	0.04373139
153	0xbe064782	-0.13113216
154	0xbc9477dc	-0.01812356
155	0xbcd52c5b	-0.026022127
156	0xbe145436	-0.14485249
157	0xbde1f422	-0.11032893
158	0xbd30fe7f	-0.043211456
159	0xbe0364bf	-0.128314
160	0xbd8f0685	-0.069836654
161	0xbe103b1b	-0.14085047
162	0x3d1fc21c	0.039003477
163	0xbd7f686e	-0.06235545
164	0x3d8be432	0.06830634
165	0xbdb5c486	-0.088753745
166	0xbd3d0ded	-0.04615586
167	0xbd187f62	-0.037230857
168	0x3d110692	0.035406657
169	0x3dd60b73	0.104514025
170	0xbd3aecc6	-0.04563596
171	0x3db1cd69	0.08681757
172	0xbe1c7579	-0.15279187
173	0xbd23ee41	-0.04002214
174	0xbe065088	-0.13116658
175	0xbe106424	-0.141007
176	0xbbb26d7a	-0.0054451795
177	0xbdd06acc	-0.1017662
178	0x3cfdfcfa	0.031004418
179	0xbe0b4632	-0.13600996
180	0x3d8dc43b	0.069221936
181	0x3c311cac	0.010810059
182	0xbc969997	-0.018383784
183	0xbe0c4d4c	-0.13701361
184	0xbddacf6e	-0.10684095
185	0xbd84fc11	-0.0649339
186	0xbd922cb1	-0.071374305
187	0xbe41023d	-0.1884851
188	0xbd83b7f3	-0.0643157
189	0x3d50cfb4	0.05097933
190	0xbdbb8b8b	-0.09157475
191	0x3c7d4f1a	0.015460754
192	0x3d89f405	0.06735996
193	0xbdda5aaf	-0.10661828
194	0xbc1104b5	-0.00885122
195	0xbd48395a	-0.04888282
196	0xbccad4d5	-0.02475969
197	0x3dcf3051	0.101166375
198	0x3c5c1dad	0.01343481
199	0x3d0d9983	0.03457023
200	0x3d8acfd1	0.06777919
201	0x3d25b450	0.040455163
202	0x3dd2b3e8	0.10288221
203	0x3d684d5a	0.056714393
204	0xbe2834be	-0.1642637
205	0xbd8b5b24	-0.06804493
206	0x3da2de40	0.07952547
207	0x3c16159d	0.009160426
208	0xbd7845b8	-0.060613364
209	0x3e181681	0.14852335
210	0xbb4031b2	-0.0029326496
211	0x3d23e99a	0.0400177
212	0xbe0da231	-0.13831402
213	0xbb562609	-0.003267648
214	0x3c80fd50	0.015745789
215	0xbbc6397e	-0.006049334
216	0xbdba9e9b	-0.09112283
217	0xbd5588a3	-0.05213226
218	0xbe26cd24	-0.16289192
219	0x3d8dfede	0.06933378
220	0x3d7c2d16	0.061566435
221	0x3da7277b	0.08161827
222	0xbe2af7de	-0.16696116
223	0x3ae38d5e	0.0017360856
224	0xbdfe1b26	-0.12407522
225	0xbd78fc74	-0.060787633
226	0xbe2211e4	-0.15827137
227	0xbd6b3c4f	-0.05743056
228	0xbdd566b1	-0.104199775
229	0x3d8426f4	0.06452742
230	0x3d75a0f2	0.059967943
231	0x3c899adf	0.016797481
232	0xbd8596c3	-0.06522896
233	0xbd51d0f2	-0.051224656
234	0xbdbf57c9	-0.093429156
235	0x3c86b4f3	0.016443705
236	0x3dbbcb83	0.09169676
237	0xbdb77ccc	-0.0895935
238	0x3dd673b0	0.104712844
239	0x3dba1add	0.09087155
240	0xbd47105f	-0.048599597
241	0xbd96ffc3	-0.073730014
242	0xbe0337d9	-0.12814273
243	0xbd906c94	-0.0705196
244	0xbd8b111b	-0.06790372
245	0xbe012298	-0.12610853
246	0x3c10df21	0.008842261
247	0x3d881fdf	0.06646704
248	0x3d954d70	0.07290161
249	0xbc29e536	-0.01036959
250	0x3d4eb5f3	0.05046649
251	0x3c353336	0.011059573
252	0xbe4dbae5	-0.20090826
253	0x3e22acdd	0.15886255
254	0x3d9eb5ca	0.07749517
255	0x3d9d8876	0.076920435

network_body._body_endoder.seq_layers.0.bias f4 [256]
0	0xbcd5180b	-0.026012441
1	0xbdf459c9	-0.11931188
2	0x3e20df4d	0.15710182
3	0x3e1e6001	0.1546631
4	0x3e28ea8c	0.16495723
5	0xbd0f7a8f	-0.03502899
6	0xbdc2f185	-0.095187224
7	0xbc2c252f	-0.010506912
8	0xbd5fa123	-0.05459703
9	0x3c5a2028	0.013313331
10	0xbe512833	-0.20425491
11	0xbe0afaa6	-0.13572177
12	0x3e4d5dd2	0.20055321
13	0x3a8f761a	0.0010945231
14	0x3e316ca6	0.17326602
15	0xbd847bfe	-0.06468962
16	0xbdfd6deb	-0.12374481
17	0xbd998174	-0.07495394
18	0xbdca9a43	-0.09892704
19	0xbda9d762	-0.08293034
20	0x3cc7a3a5	0.024370024
21	0xbe2704c1	-0.16310407
22	0xbdaae67d	-0.083447434
23	0x3e0d48db	0.13797323
24	0x3d369736	0.0445778
25	0x3daca888	0.08430582
26	0xbca07b08	-0.019589916
27	0x3e29369e	0.16524741
28	0x3e03f93d	0.12888046
29	0xbd725260	-0.05916059
30	0x3ce7ed45	0.028311381
31	0xbd96ce81	-0.07363606
32	0x3e04f0a8	0.12982428
33	0xbe0e185e	-0.13876483
34	0xbd4b7f72	-0.04968209
35	0x3d294363	0.04132403
36	0xbd2ba52b	-0.041905563
37	0x3d35a4b9	0.044346545
38	0xbdcd9b8c	-0.10039434
39	0xbe04c597	-0.12966
40	0x3c9c24bb	0.019060483
41	0x3dd2c90b	0.10292252
42	0xbc479f3c	-0.0121839605
43	0xbe2584e1	-0.1616397
44	0xbe07f4ac	-0.13276929
45	0xbdbc23c6	-0.09186511
46	0xbc7484d2	-0.014924245
47	0xbd9813b6	-0.074256346
48	0xbe372921	-0.17886783
49	0xbd28b7b9	-0.041190837
50	0xbda0811b	-0.07837125
51	0x3d359a16	0.0443364
52	0x3e16955a	0.1470541
53	0x3e113a26	0.14182338
54	0x3d72bec9	0.05926398
55	0xbd764657	-0.060125675
56	0x3e2bdfae	0.16784546
57	0x3e58fde7	0.21190606
58	0xbdd9f1e2	-0.106418386
59	0xbd141c3c	-0.03615974
60	0x3dc5b0be	0.096528515
61	0x3e02fab7	0.12790953
62	0xbe1c819a	-0.15283814
63	0xbe2dc80d	-0.16970845
64	0xbdd0c25d	-0.10193322
65	0x3b265de8	0.0025385562
66	0xbe137689	-0.14400686
67	0x3dc10a7d	0.094258286
68	0x3e75ada3	0.23992018
69	0xbdf93a15	-0.121692814
70	0x3d887cbe	0.06664418
71	0xbceed01d	-0.02915197
72	0xbddc0adb	-0.10744258
73	0x3e5c672f	0.21523736
74	0xbe1b1429	-0.15144409
75	0xbdc00ce8	-0.09377462
76	0xbda7949d	-0.081826426
77	0xbd179882	-0.037010677
78	0x3e2bd8c3	0.16781907
79	0xbd99254b	-0.07477816
80	0xbe13b488	-0.14424336
81	0x3e300f5e	0.17193362
82	0xbd9a73da	-0.07541628
83	0x3d9c6b6a	0.07637675
84	0xbe345f33	-0.1761444
85	0xbdf5569c	-0.1197941
86	0xbd770468	-0.060306937
87	0xbd5154de	-0.051106326
88	0x3e2e4406	0.17018136
89	0xbda7285f	-0.08161997
90	0x3d752b2a	0.059855618
91	0xbdace163	-0.084414266
92	0xbd8e8055	-0.06958071
93	0xbd7bb629	-0.06145302
94	0xbc434f73	-0.011920798
95	0xbe02f3c9	-0.12788309
96	0x3c39193e	0.011297522
97	0x3d32a708	0.043616325
98	0x3e555049	0.20831408
99	0xbd2ba9b9	-0.041909907
100	0x3db039ef	0.086048
101	0xbd7b50aa	-0.061356224
102	0x3e2f15d8	0.17098176
103	0xbd2c6789	-0.042090926
104	0x3df66563	0.12031057
105	0x3e4917af	0.19637941
106	0xbe00df4c	-0.12585181
107	0x3de3b187	0.11117845
108	0xbd481170	-0.048844755
109	0x3e5234a2	0.2052789
110	0x3e0d9612	0.13826779
111	0x3d6fa082	0.05850268
112	0xbdc8ded3	-0.09808125
113	0xbdb762cf	-0.08954393
114	0xbc2dadad	-0.01060049
115	0xbde9d14a	-0.11416872
116	0x3e42cfe0	0.1902461
117	0xbe1c87d2	-0.15286186
118	0xbdc118e5	-0.094285764
119	0x3c2b125c	0.010441389
120	0x3dd503a9	0.10401089
121	0xbd758ccd	-0.05994873
122	0xbdcabcdf	-0.098993056
123	0xbdcde46a	-0.10053332
124	0x3d013938	0.03154871
125	0xbc8caf5f	-0.017173467
126	0x3cca5a3b	0.024701228
127	0x3d087ee3	0.033324134
128	0x3ce454ec	0.027872525
129	0x3d1614b8	0.036640853
130	0x3c97ab8d	0.018514419
131	0xbe4ee62d	-0.20204993
132	0x3e5b95ab	0.21443813
133	0x3e3afbc9	0.18260111
134	0xbde4e9b7	-0.1117739
135	0x3e53de76	0.20690331
136	0x3dcbd5f4	0.09952918
137	0x3bb04a0c	0.005379921
138	0xbdf77003	-0.120819114
139	0xbe600d5a	-0.21880093
140	0xbcf84b09	-0.030309217
141	0xbd7afe9c	-0.06127797
142	0xbd32c55f	-0.04364526
143	0xbdac59af	-0.08415543
144	0x3d09fd09	0.03368858
145	0x3dff2379	0.12457938
146	0x3c97cede	0.01853126
147	0xbcc8f5c1	-0.024531247
148	0xbd9fb85a	-0.07798834
149	0x3d89be28	0.067257226
150	0x3d827d9d	0.06371615
151	0xbdba1e03	-0.090877555
152	0xbdd784c7	-0.10523372
153	0x3e35ad6a	0.17741933
154	0x3dc86c16	0.09786241
155	0x3e093a33	0.13401107
156	0xbd20450a	-0.03912834
157	0xbe302a9a	-0.17203751
158	0xbd122f1f	-0.03568947
159	0xbe14d290	-0.14533448
160	0x3cb13085	0.021629581
161	0x3bc34156	0.0059587164
162	0xbe0c6946	-0.13712034
163	0xbdc2c258	-0.095097244
164	0x3df97c7d	0.121819474
165	0x3d720ffd	0.05909728
166	0xbd96566f	-0.07340705
167	0xbd123ecd	-0.035704423
168	0x3dd0d93e	0.10197686
169	0x3be0d133	0.006860876
170	0x3dade68b	0.08491238
171	0x3e36a19a	0.17835084
172	0xbe2e4d6c	-0.17021722
173	0xbd86085b	-0.065445624
174	0x3d7821df	0.060579177
175	0x3e130921	0.14358951
176	0xbcef1d57	-0.029188795
177	0xbd87bdd3	-0.06628003
178	0xbccf697d	-0.025318855
179	0xbdaa6841	-0.08320666
180	0xbdc7c96e	-0.097552165
181	0x3e42fa06	0.19040689
182	0x3e42e38b	0.19032113
183	0xbe8de8a5	-0.27716556
184	0xbdd0ae0a	-0.10189445
185	0xbe3fabc7	-0.18717872
186	0x3da6f979	0.08153052
187	0x3e209e00	0.15685272
188	0x3db35fd8	0.08758515
189	0x3e622b0f	0.22086738
190	0x3e578f11	0.21050669
191	0xbe06dff1	-0.13171364
192	0x3e3a09d2	0.18167809
193	0xbe054c8a	-0.13017479
194	0x3e1e8518	0.15480459
195	0x3cb7394d	0.02236619
196	0x3d8080d7	0.06274574
197	0x3db120ea	0.08648856
198	0xbd935753	-0.0719439
199	0xbd2eaa61	-0.042642955
200	0xbcd8af9a	-0.02645092
201	0xbe122b5f	-0.14274357
202	0xbc28ea0d	-0.010309708
203	0x3dbe311a	0.09286709
204	0x3e12e48c	0.14344996
205	0xbe1e4dea	-0.1545941
206	0x3e2ebb1e	0.17063567
207	0xbe6d1671	-0.23153092
208	0xbdbec89e	-0.093156084
209	0x3dcb2510	0.099191785
210	0xbe322e89	-0.17400564
211	0xbdb96421	-0.09052301
212	0xbd6e59e6	-0.058191203
213	0xbdb4b01e	-0.08822654
214	0xbc369f13	-0.011146325
215	0xbd13885b	-0.03601871
216	0xbd71a23f	-0.05899262
217	0xbd6093ce	-0.054828458
218	0xbc508566	-0.012727117
219	0x3c7ee40f	0.015557303
220	0x3bc8c76d	0.006127289
221	0xbe5b40b5	-0.21411403
222	0xbe2831dc	-0.1642527
223	0xbe9a1262	-0.3009215
224	0x3e2388a6	0.15970096
225	0xbd315589	-0.043294463
226	0xbd5a6f26	-0.053328656
227	0x3e197258	0.14985025
228	0xbcf8c80f	-0.030368833
229	0x3debac19	0.115074344
230	0xbd02386b	-0.031792086
231	0x3dffd137	0.124910764
232	0xbdac5588	-0.08414751
233	0xbe02e2b7	-0.12781797
234	0x3d885420	0.066566706
235	0xbd1cfadc	-0.038325176
236	0xbd724c13	-0.05915458
237	0xbc2aad27	-0.010417259
238	0xbe520129	-0.20508255
239	0x3d095e31	0.033537094
240	0x3e588010	0.21142602
241	0xbdefc04a	-0.11706598
242	0x3e132a0d	0.1437151
243	0x3e399911	0.18124796
244	0x3baf8d4e	0.005357421
245	0xbd913e6e	-0.07091986
246	0x3e01085d	0.12600847
247	0xbdcce5a0	-0.10004735
248	0xbde807b8	-0.11329597
249	0x3e6f1617	0.2334827
250	0x3e0f9de9	0.14025082
251	0xbd003ad1	-0.03130609
252	0xbc678d8c	-0.0141328685
253	0x3e307080	0.17230415
254	0xbd4dbb32	-0.05022735
255	0x3e020312	0.12696484

network_body._body_endoder.seq_layers.2.weight f4 [256, 256]
0	0x3d8e9234	0.0696148
1	0xbd4b5d75	-0.049649674
2	0xbb66b4bd	-0.0035202943
3	0xbdb42055	-0.08795229
4	0xbe76d379	-0.24104108
5	0xbe032a23	-0.12809043
6	0xbeb968df	-0.36212823
7	0x3d96060e	0.073253736
8	0x3e3695da	0.17830601
9	0xbe854b21	-0.2603388
10	0x3dd5ad57	0.104334526
11	0x3cf5fb96	0.030027192
12	0x3ded152b	0.11576303
13	0xbb9ac329	-0.004722972
14	0x3e06058b	0.13088052
15	0xbe004229	-0.12525238
16	0xbdc941d5	-0.098270096
17	0x3d95e883	0.07319739
18	0x3dba9e89	0.091122694
19	0xbde7fe09	-0.1132775
20	0xbd81c3da	-0.06336184
21	0x3de486b1	0.11158503
22	0xbcf9ff0f	-0.03051713
23	0xbe931efc	-0.28734577
24	0xbd5ab93d	-0.053399313
25	0xbe193964	-0.14963299
26	0x3d7a24ad	0.061070133
27	0xbc8835d9	-0.016627239
28	0xbe02ec78	-0.12785518
29	0x3e0dc182	0.13843349
30	0xbda4f565	-0.08054618
31	0xbea7393b	-0.3266085
32	0x3cf47b3f	0.029843925
33	0x3e0ce8d9	0.137607
34	0x3db249d9	0.087054916
35	0x3d1c5d4a	0.038174905
36	0x3e87d146	0.2652685
37	0xbe11cc13	-0.14238004
38	0xbdb6d481	-0.08927251
39	0x3de1480b	0.11000069
40	0xbe47952c	-0.19490498
41	0xbe2f2212	-0.1710284
42	0x3e86c8f2	0.26325184
43	0x3d859015	0.06521622
44	0x3dc34822	0.095352426
45	0x3e3cf0b8	0.18451202
46	0x3d1e8d12	0.038708754
47	0x3d89c7df	0.067275755
48	0x3dd75827	0.105148606
49	0x3e120a8e	0.14261839
50	0x3dca0309	0.0986386
51	0xbe6b55e2	-0.2298198
52	0xbd4603e8	-0.04834357
53	0xbea3fd37	-0.32029125
54	0xbddda94a	-0.10823305
55	0x3d84e895	0.06489674
56	0x3dba7d10	0.09105885
57	0xbe2bd076	-0.1677874
58	0x3dae8f48	0.085234225
59	0x3e492797	0.19644009
60	0xbe555cec	-0.20836228
61	0xbe01cc30	-0.12675548
62	0x3e16a598	0.14711607
63	0x3d92863e	0.07154511
64	0x3ce32a8f	0.027730254
65	0xbd90f588	-0.07078081
66	0x3e24a8a5	0.16079958
67	0xbd6b50c0	-0.057450056
68	0xbe9d3f21	-0.30712226
69	0x3e1845c7	0.14870368
70	0x3c039aef	0.0080325445
71	0x3d982c99	0.07430381
72	0x3e92d3ff	0.28677365
73	0xbe0ba995	-0.13638909
74	0x3dc4916f	0.09598052
75	0x3d7b61e9	0.06137267
76	0xbef6e471	-0.48221162
77	0x3d0caf85	0.034347076
78	0xbe56c503	-0.20973592
79	0xbf01fdde	-0.50777996
80	0x3e387b1d	0.18015714
81	0x3dabeb4f	0.08394491
82	0x3cf4bd71	0.029875489
83	0xbe037175	-0.12836249
84	0x3d2f94b1	0.042866413
85	0x3b1815bc	0.0023206314
86	0x3e4808ae	0.19534561
87	0x3dc7afb2	0.09750308
88	0xbd41d34f	-0.04732066
89	0x3e0875a7	0.13326131
90	0x3dcd75c3	0.10032227
91	0x3e38c8fb	0.18045418
92	0xbe2b5783	-0.16732602
93	0x3e253726	0.16134319
94	0x3e5fe165	0.21863325
95	0x3ce38974	0.027775504
96	0xbc740400	-0.014893532
97	0xbdb046cf	-0.08607256
98	0xbe0224da	-0.1270937
99	0x3c3bf86d	0.011472804
100	0xbc81a994	-0.015827931
101	0xbeac2aff	-0.33626553
102	0x3d7008cd	0.058602143
103	0x3d84666d	0.06464849
104	0xbe3f8668	-0.18703616
105	0xbe31cd19	-0.17363395
106	0x3da41b01	0.08012963
107	0xbd460ed0	-0.04835397
108	0x3c5e7142	0.013576807
109	0xbd17b71e	-0.03703987
110	0x3ccbb1a0	0.024864972
111	0xbdc4e732	-0.096144095
112	0x3e0ed965	0.13950117
113	0xbe5ec010	-0.21752954
114	0x3e011c19	0.12608375
115	0xbdddf6c7	-0.10838085
116	0xbd046854	-0.032326058
117	0xbedddf26	-0.4333431
118	0x3b4d2452	0.0031302166
119	0x3c90060c	0.017581008
120	0xbd7154ae	-0.058918647
121	0x3c7f994e	0.0156005155
122	0x3dd7ba9d	0.105336405
123	0x3d714d1d	0.05891143
124	0xbe6ca592	-0.23110035
125	0x3d8d66cc	0.069043726
126	0xbed92a18	-0.42414927
127	0x3daeaaf5	0.08528701
128	0x3d913ef3	0.07092085
129	0x3cf3d5c9	0.029765027
130	0xbdbbbac5	-0.09166483
131	0x3d8fd59d	0.070231654
132	0xbd1cd976	-0.038293324
133	0xbe2bda95	-0.16782601
134	0x3e4c74ca	0.19966426
135	0xbc6b5ee4	-0.014365885
136	0xbb9d5fc5	-0.0048026764
137	0x3d5fcdc7	0.054639604
138	0xbddbf43e	-0.10739945
139	0x3cc54573	0.024080968
140	0xbe39a89e	-0.18130729
141	0xbc945cac	-0.018110596
142	0x3dd83545	0.10557035
143	0xbd45e5d3	-0.04831488
144	0x3da6ad3a	0.08138509
145	0xbd8e2e7e	-0.069424614
146	0xbd5515fc	-0.05202292
147	0xbdb7b888	-0.089707434
148	0x3e661274	0.22467977
149	0xbe081898	-0.13290632
150	0xbdea2e92	-0.11434664
151	0xbc4b5d07	-0.012412316
152	0x3ded49cb	0.115863405
153	0x3d032220	0.032014966
154	0xbe16488f	-0.14676116
155	0xbda25c48	-0.079277575
156	0xbd81dd77	-0.06341069
157	0x3d5042c6	0.05084493
158	0xbdefd2f9	-0.11710162
159	0x3e557f29	0.20849289
160	0xbc5d355f	-0.013501494
161	0xbdd3c9d0	-0.10341227
162	0x3e31bb20	0.17356539
163	0x3c811140	0.015755296
164	0x3c179c69	0.0092536
165	0xbe282c44	-0.16423136
166	0x3c4a73a6	0.012356674
167	0xbe1ee6f6	-0.15517792
168	0xbc908dac	-0.01764568
169	0xbd152c23	-0.036419045
170	0xbdcae874	-0.09907618
171	0x395ba96a	0.00020948579
172	0xbc26cb3a	-0.010180289
173	0x3d8ff543	0.07029202
174	0xbdda6c8f	-0.10665237
175	0x3bd47b5a	0.006484431
176	0xbd934713	-0.07191291
177	0x3da49b75	0.080374636
178	0x3d8e5b3f	0.069509976
179	0x3d637c50	0.055538476
180	0x3de59122	0.112093225
181	0xbdbd6efe	-0.09249686
182	0xbd8649ec	-0.06557068
183	0x3b14dfe1	0.002271645
184	0x3c1c1a00	0.009527683
185	0x3dbb5732	0.091474906
186	0xbd29afc1	-0.041427378
187	0xbd95e442	-0.07318927
188	0xbd349580	-0.044087887
189	0xbd7591c8	-0.05995348
190	0x3d77e5f7	0.060522046
191	0x3e5df0d1	0.21673895
192	0xbe552ee0	-0.20818663
193	0x3e7876f8	0.24264133
194	0xbdfbf73e	-0.12303017
195	0xbd49297e	-0.049111836
196	0xbdb03445	-0.086037196
197	0xbe7929c9	-0.24332346
198	0x3e396d0f	0.18108009
199	0x3d2fcc83	0.042919647
200	0x3e1d6639	0.15371026
201	0xbda9a2ff	-0.08283042
202	0xbe016fb6	-0.1264027
203	0xbd006a0c	-0.031351134
204	0xbde90fb5	-0.11379949
205	0x3e1de9f7	0.15421282
206	0xbd1ca67a	-0.038244702
207	0xbdfe2521	-0.124094255
208	0x3e413d02	0.18870929
209	0x3d17ab35	0.03702851
210	0xbe4d0256	-0.20020422
211	0xbd4fd9ae	-0.050744705
212	0xbe3602f7	-0.17774568
213	0xbea94a76	-0.33064622
214	0x3d563610	0.05229765
215	0xbe5d6b11	-0.21622874
216	0xbd866ee0	-0.065641165
217	0x3bf6835e	0.0075229844
218	0xbe761b83	-0.24033932
219	0x3dc2d971	0.0951413
220	0x3e2fb2e1	0.1715808
221	0x3ddc12d8	0.10745782
222	0x3cdfb798	0.027309224
223	0xbd61621b	-0.0550252
224	0xbd933b98	-0.07189101
225	0x3e2bd2e6	0.1677967
226	0x3d5c5891	0.0537954
227	0x3c53ee5c	0.012935247
228	0x3e474e38	0.19463432
229	0xbd579f75	-0.052642304
230	0x3da5cfd0	0.08096278
231	0x3d9c210d	0.076234914
232	0xbe50697c	-0.20352739
233	0x3d245bc8	0.040126592
234	0x386b5b48	5.611338e-05
235	0xbe0423f7	-0.12904344
236	0xbda02ce9	-0.07821066
237	0xbb85cea8	-0.0040834732
238	0xbb54f27f	-0.0032493172
239	0x3def0006	0.11669926
240	0xbdb4df94	-0.08831707
241	0x3e8b11bf	0.27161977
242	0xbddf238e	-0.108954534
243	0xbdd57ec0	-0.10424566
244	0xbddb37cf	-0.10704004
245	0x3cd2623d	0.02568161
246	0xbc3e05e1	-0.011598081
247	0xbc36f434	-0.011166621
248	0xbe09839f	-0.13429116
249	0xbd9916d0	-0.07475054
250	0xbe20d325	-0.15705545
251	0xbe102d83	-0.14079861
252	0x3e1e6b8f	0.15470718
253	0xbe5522ac	-0.20814008
254	0xbbf84105	-0.0075761103
255	0x3d5a9c73	0.053371858
